enhancement/src/main/assets/Sensifai_Enhancement_TFLite.tflite (tflite, 199952 bytes, 186 tensors)

model/Generator/body/res_block_sce0/conv1/conv2d/bias f4 [16]
00000000: 5916 79bc be32 4dbd 80d0 323d f844 91bc
00000010: b367 78bc 8d62 96bd 872f 11bd 676f 413c
00000020: 2230 26be d63d 793d e8b4 a83c 9d44 193d
00000030: 7b83 f8bc 16f9 fa3c 194c dbbd 269d 1b3b
-0.015203082 -0.05009722 0.043655872 -0.017733082 -0.015161443 -0.07343016 -0.035445716 0.011806346
-0.16229299 0.060849987 0.020594075 0.03741895 -0.030336132 0.030636352 -0.10707874 0.002374479

model/Generator/body/res_block_sce0/dense1/b f4 [4]
00000000: f8b1 eb3d 991b 063e 6df7 113e d7a7 ac3e
0.11508554 0.13096465 0.14254542 0.33721802

model/Generator/body/res_block_sce0/dense2/b f4 [16]
00000000: 03e8 5aba 5749 0d3e bb8f 9dbd d3ef 44bd
00000010: 08b9 80bd 34a2 3c3e eaca fdbd 96f8 113e
00000020: d98b d63b 2dac 97bd a476 cebc a4e5 bf3c
00000030: 9433 293d a7a3 333c 1eef a3bc bf79 b3bc
-0.00083506125 0.13797508 -0.0769343 -0.048080277 -0.06285292 0.1842125 -0.123922184 0.14254984
0.006547433 -0.07405887 -0.025203057 0.02342493 0.041308954 0.010964311 -0.02001148 -0.021908639

model/Generator/body/res_block_sce1/conv1/conv2d/bias f4 [16]
00000000: 259e a23c 6880 a73b d9fd 133d 0b79 1d3d
00000010: 0ac6 6dbd 1629 f6bc 4261 843c bba9 6cbd
00000020: e481 8bbd 86d5 d13d b204 52bd 785c 3dbd
00000030: 3ece c6bc 2472 15bc ee59 73bd a3d3 793d
0.0198508 0.0051117428 0.03613076 0.038445514 -0.058050193 -0.030048888 0.016159657 -0.057779055
-0.06811884 0.102458045 -0.05127401 -0.046230763 -0.024268266 -0.0091214515 -0.059411936 0.060992848

model/Generator/body/res_block_sce1/dense1/b f4 [4]
00000000: ca93 233e 3a40 a9bc 8dec 193e d34f 053d
0.15974346 -0.020660508 0.15031643 0.03254683

model/Generator/body/res_block_sce1/dense2/b f4 [16]
00000000: d7d4 b83c 38b6 0fbc 8ea1 eabd f910 303d
00000010: eaf8 403d de9e aa3c 9fd0 4abd cc86 0bbd
00000020: d6c2 acbc f9ee e7bd 8bf0 4fbd 994d b6bc
00000030: d592 f93b 3988 9ebd d463 9b3d afc2 35bd
0.022562427 -0.008771472 -0.11456595 0.042984936 0.047112383 0.020827707 -0.049515363 -0.0340641
-0.021088999 -0.11324877 -0.05076651 -0.022253798 0.0076163807 -0.07740826 0.075874 -0.044375118

model/Generator/body/res_block_sce10/conv1/conv2d/bias f4 [16]
00000000: 8f63 c0bd 5f96 c7bc 03d7 9f3d 7c6f f0bc
00000010: 710c 17be 4de7 9bbd 1a40 9cbc 594c dfbd
00000020: 9501 963d 9712 3bbe 1c0c 8fbc 82b8 c73c
00000030: 981a 45bd 583c 0b3e d01c e9bc f5f9 21bd
-0.09393989 -0.024363695 0.07804682 -0.029350035 -0.1475084 -0.076124765 -0.019073535 -0.10903234
0.073245205 -0.1826881 -0.017461829 0.024379972 -0.048121065 0.13597238 -0.028456122 -0.03954502

model/Generator/body/res_block_sce10/dense1/b f4 [4]
00000000: 12bf 7d3d 49dc 133e 31da a13e 2b27 253d
0.061949797 0.14439501 0.3161178 0.040320557

model/Generator/body/res_block_sce10/dense2/b f4 [16]
00000000: 59f1 ccbd 55b0 96bd b2f0 17be 7037 07be
00000010: 220b e0bc ac90 adbd 758c fbbd bea9 643d
00000020: efcb 6c3d 773a 75bd 8699 e2bd d4f4 26be
00000030: 6bad 6fbd 5068 e73d 4af9 b83c 633b 083d
-0.10006971 -0.073578514 -0.14837912 -0.13204741 -0.027349059 -0.084748596 -0.122826494 0.05582594
0.057811674 -0.05987021 -0.110644385 -0.16304332 -0.058514994 0.11299193 0.022579808 0.03325976

model/Generator/body/res_block_sce11/conv1/conv2d/bias f4 [16]
00000000: 69b8 5f3d 7f04 fd3d fdb1 123d 0a80 a4bd
00000010: 01d5 e0bc 624a 16be ed18 b13d 980f adbd
00000020: cd93 493c d9da 56bd 503b c63d 0a47 8bbd
00000030: 8343 243d 213b cebd 7899 5ebd 950c 193d
0.054619227 0.12354373 0.035814274 -0.08032234 -0.027445318 -0.14676812 0.08647332 -0.0845024
0.012303305 -0.052454803 0.09679282 -0.06800659 0.040103447 -0.10069872 -0.054345578 0.037365515

model/Generator/body/res_block_sce11/dense1/b f4 [4]
00000000: 35d5 4d3d e682 f93d 6d34 193e f402 1e3e
0.05025216 0.1218317 0.14961405 0.15430814

model/Generator/body/res_block_sce11/dense2/b f4 [16]
00000000: 076f 943b 6841 2c3d d8c3 973c 1f1e dabd
00000010: e2ef bfbd 89cc cabd 96a8 303d 3865 913c
00000020: fd78 3dbd 6f2f 9dbd ab47 75be a935 26be
00000030: e10c 7ebd 8bf8 973b 0fb4 443d d300 36be
0.004529837 0.042054564 0.018526003 -0.106502764 -0.09371926 -0.09902293 0.043129526 0.01774846
-0.04625796 -0.07675063 -0.2395312 -0.16231407 -0.062024 0.004637783 0.04802328 -0.17773752

model/Generator/body/res_block_sce12/conv1/conv2d/bias f4 [16]
00000000: 6a4f 983d a51f c03d 4b1c 053e 97f1 a33d
00000010: b890 553d 7666 17be 7dc5 da3d 4d2e 42bc
00000020: f4fe 54bc 041d 8b3d b2e7 823d ef1f 513e
00000030: a45e dd3d 7434 96bd 3f59 723d 385a 5b3b
0.07437022 0.09381036 0.12999074 0.08005064 0.052139968 -0.1478518 0.10682199 -0.011851859
-0.013000239 0.06792644 0.063918486 0.20422338 0.10809067 -0.073342234 0.059167143 0.0033470523

model/Generator/body/res_block_sce12/dense1/b f4 [4]
00000000: 08ee f1bd c1c1 a73d f0b8 43bc 33b0 653e
-0.11812979 0.081912525 -0.011945948 0.22430496

model/Generator/body/res_block_sce12/dense2/b f4 [16]
00000000: 9a1c 873d d5b5 d1bd a5fc 9f3c d60c 003e
00000010: c44e edbd 7f47 6c3c d3fd a0bd 3f19 16be
00000020: d233 183d f865 52be 14e8 073d 0c18 19bc
00000030: 0e5f 51bd 3574 383d 94d8 983d 8925 0bbe
0.06597252 -0.1023976 0.01952965 0.12504897 -0.11587289 0.014421343 -0.07860913 -0.14658068
0.037158795 -0.2054671 0.03318031 -0.009344112 -0.05111604 0.0450327 0.07463184 -0.13588537

model/Generator/body/res_block_sce13/conv1/conv2d/bias f4 [16]
00000000: e524 2dbd 3992 243d c3ab 4ebd b2bc 8b3d
00000010: 4e43 823e 8ce3 83bd 61f5 353d 7cdd b9bd
00000020: 9a4c 84bc 0591 b83d bf6c e33d 0789 74be
00000030: 71ca 353d 3602 0f3e 60e2 85bd af7f 19be
-0.042271513 0.04017851 -0.050456773 0.068231 0.25441974 -0.064398855 0.044423465 -0.09075448
-0.016149808 0.09012035 0.11104726 -0.23880397 0.044382516 0.13965687 -0.06537318 -0.14990114

model/Generator/body/res_block_sce13/dense1/b f4 [4]
00000000: dd02 373e 6ac9 403e ca1f 293e a440 273e
0.17872186 0.18826833 0.16516033 0.16333252

model/Generator/body/res_block_sce13/dense2/b f4 [16]
00000000: fe73 f23c 601e 8b3d 85a9 57bd 178b 3a3d
00000010: 8cb2 0dbd 6240 eebd 103e 4d3d 730a a93d
00000020: 5ff5 1abd 6d13 84bd 778f e3bb 8178 383d
00000030: a425 983d e88b 9f3c 17b9 d13c dbf5 bdbc
0.029596325 0.06792903 -0.0526519 0.045542803 -0.034594104 -0.11633374 0.050108016 0.08253946
-0.03783166 -0.06449018 -0.0069445926 0.045036796 0.074290544 0.019475892 0.025600953 -0.023188522

model/Generator/body/res_block_sce14/conv1/conv2d/bias f4 [16]
00000000: e594 efbc c5da 62bd 105c c33a e4fb 82bc
00000010: 8996 6f3e a2b9 0bbc 9ed8 e13c a18a 433e
00000020: 0fc9 14bc 7ca8 cd39 50fb 8dbd 89c8 e83d
00000030: 6978 07be 608b 23be 5f3c 8ebd 95d5 a8ba
-0.029245803 -0.055384416 0.0014904756 -0.015989251 0.23397268 -0.008528145 0.027569111 0.19095851
-0.009081139 0.00039226178 -0.069327 0.11366374 -0.13229527 -0.15971136 -0.069451086 -0.0012881035

model/Generator/body/res_block_sce14/dense1/b f4 [4]
00000000: 6c22 383e 3a9f 863d 1892 df3d 57c3 013d
0.17981881 0.06573339 0.10916537 0.03168043

model/Generator/body/res_block_sce14/dense2/b f4 [16]
00000000: ad1f 9cbd 824a 0ebd d83e 1e3d 99e6 11be
00000010: 21f1 54be 6775 08be 6aa9 a43d f1f9 d43c
00000020: 7835 50bf f193 91bd d2be 1ebe 5578 153d
00000030: 287b dfbe a16b d1bd d84e 2abe c6a6 9fbd
-0.07623229 -0.034739025 0.03863415 -0.14248122 -0.20795108 -0.13326035 0.08040126 0.025998088
-0.81331587 -0.07108296 -0.1550248 0.03649171 -0.43648648 -0.10225607 -0.16631639 -0.077954814

model/Generator/body/res_block_sce15/conv1/conv2d/bias f4 [16]
00000000: 78ff cebc 6a11 253e c35d 9a3e 6905 933e
00000010: b3e9 6e3d 5c5c 1f3e c3b9 583e b440 7d3e
00000020: 6c32 7f3d e325 0b3e f3e9 dabd 81dc e4bd
00000030: 80aa 073d 4dba 4a3e ee98 b53d 26d4 653e
-0.025268301 0.16119924 0.3014966 0.28715065 0.05832834 0.15562576 0.21164612 0.24731714
0.062303945 0.13588671 -0.106891535 -0.1117487 0.033121586 0.1979763 0.0886706 0.2244421

model/Generator/body/res_block_sce15/dense1/b f4 [4]
00000000: 54fc 0abd efc1 223b 911b 403d c0f8 a33d
-0.033932045 0.0024834832 0.04690129 0.0800643

model/Generator/body/res_block_sce15/dense2/b f4 [16]
00000000: a6b1 e23c 6436 c1be f05c ea3c b820 b63d
00000010: cca2 c33d a079 92be 58bc 5bbf e158 303c
00000020: 474f 1cbe 882e 203e 68b0 9ebd 0a34 943d
00000030: 7e81 d13d d074 06be a159 82be bf1b 5bbe
0.0276726 -0.3773681 0.02860877 0.08892959 0.095525354 -0.28608418 -0.85834265 0.010763378
-0.15264617 0.1564275 -0.077484906 0.07236488 0.10229777 -0.13130498 -0.25459006 -0.21397303

model/Generator/body/res_block_sce16/conv1/conv2d/bias f4 [16]
00000000: 9a0e 46bd 05b3 3f3d bc31 273e 7d77 ddbd
00000010: 8772 56bd 9c91 b13d cc49 18bd 55ef b53d
00000020: ef36 02be b383 8a3d aac9 3abe 62e3 723d
00000030: 009f 903d c0b8 f53d 8ea7 50bb cb4a c1bd
-0.04835377 0.046801586 0.16327566 -0.10813806 -0.052355316 0.08670351 -0.037179753 0.088835396
-0.12716268 0.06763401 -0.18240991 0.05929888 0.07061577 0.11998129 -0.0031838152 -0.09438094

model/Generator/body/res_block_sce16/dense1/b f4 [4]
00000000: bf8e 893c fc56 e93c 193b 473d 6093 20bd
0.0167917 0.02848386 0.048640344 -0.039203048

model/Generator/body/res_block_sce16/dense2/b f4 [16]
00000000: a8f7 c33d 11d4 a93d 2c25 86bd b595 b73d
00000010: 4d44 11bc 386a 28bd 5054 97bd a6ff f5bc
00000020: 3050 66bd d3da 5f3d cafa cfbc b2a3 dcbd
00000030: 7fc3 363c c0b8 d7bc 0b0b de3d 4e40 7e3d
0.09568721 0.082924016 -0.06550059 0.08964101 -0.008866382 -0.041116923 -0.07389128 -0.03002913
-0.056228817 0.054652046 -0.02538814 -0.1077341 0.011155008 -0.026333213 0.1084195 0.062073044

model/Generator/body/res_block_sce17/conv1/conv2d/bias f4 [16]
00000000: 97e1 55bc 1e83 cb3d fddc 533d a59a 41be
00000010: 7563 353e 63c0 b73e 02f1 10be f744 86bd
00000020: 93eb 54bd cd37 703e 63e4 0a3e bcba 00be
00000030: f8dc 55bd c640 36bd e0b7 81bd 9601 d63b
-0.013054273 0.09937118 0.051724423 -0.18906648 0.17713721 0.35888967 -0.14154437 -0.06556123
-0.051982474 0.23458786 0.13563685 -0.12571234 -0.052212685 -0.044495367 -0.063338995 0.006530951

model/Generator/body/res_block_sce17/dense1/b f4 [4]
00000000: 111d 183d 1a85 1d3d 6927 d5bc 04f2 8a3d
0.037137095 0.038457014 -0.026019769 0.06784442

model/Generator/body/res_block_sce17/dense2/b f4 [16]
00000000: d216 363e 00a8 093d d116 d6bd 8131 fe3d
00000010: fde1 d2bc 3f6d 3abe c8b8 b5bd 8853 8b3d
00000020: fc89 003d 9172 a53d 33ca 82bd 6224 1ebe
00000030: a98e 1a3e 64fd 053c 168b 323e 8064 243d
0.17782143 0.033607483 -0.10453571 0.12411786 -0.025742525 -0.18205737 -0.08873135 0.06803042
0.031381592 0.080784924 -0.06386223 -0.15443566 0.15093483 0.008178089 0.1743587 0.040134907

model/Generator/body/res_block_sce18/conv1/conv2d/bias f4 [16]
00000000: eec5 0bbd 88ad 2c3c f89e 4a3d a2fb ec3d
00000010: fc2a f93c ed09 71bd 847a 203e 42bf 0b3e
00000020: e3db 58bd 2cc4 17be 9aa6 4a3e f872 4dbd
00000030: bf2b 5dbe 5ba0 ecbd 4f6e c2bd e005 853d
-0.034124307 0.01053942 0.04946801 0.11571433 0.030416004 -0.058847357 0.15671736 0.13647178
-0.052944075 -0.14820927 0.19790116 -0.05015847 -0.21598719 -0.11554023 -0.09493696 0.06495261

model/Generator/body/res_block_sce18/dense1/b f4 [4]
00000000: 9619 7b3d d5fc 103d 1488 093d 3fa9 ce3d
0.061303698 0.03539737 0.03357704 0.10090875

model/Generator/body/res_block_sce18/dense2/b f4 [16]
00000000: 9bbc 90bd ca7b 413d 13c2 34bc e481 993d
00000010: db9d bc3c e71c 5fbe 621d 9fbd af9a a93c
00000020: 37e0 e43b 435a 6abd 9ad5 83bc 2841 00bd
00000030: fc85 cb3c 4b54 e93d 50d7 d63c 54d0 59bc
-0.07067224 0.047237195 -0.011032599 0.07495478 0.02302449 -0.21788369 -0.07769276 0.020703642
0.0069847363 -0.057214987 -0.016093064 -0.031312138 0.024844162 0.11393031 0.026225716 -0.013294298

model/Generator/body/res_block_sce19/conv1/conv2d/bias f4 [16]
00000000: e3de ae3d 7d7a 9ebd e4b7 ad3c 497f dcbd
00000010: da92 123e c244 263e 07e9 2d3b 57b1 95be
00000020: 6182 b63c bdeb 3cbe 21c1 833d 0503 4a3e
00000030: 3bf9 8b3d 0405 6b3d 357f d4bd 54ef 193e
0.08538606 -0.077382065 0.02120585 -0.10766465 0.14313832 0.16237167 0.00265366 -0.29236862
0.022278966 -0.18449302 0.06433321 0.19727714 0.06834646 0.05737783 -0.10375825 0.15032703

model/Generator/body/res_block_sce19/dense1/b f4 [4]
00000000: 67cc 543d 93a6 acbc c7f7 d13d 9b9c fabb
0.051952746 -0.021075523 0.10252338 -0.0076480634

model/Generator/body/res_block_sce19/dense2/b f4 [16]
00000000: 3dd6 aabe c1c2 aebe a39c 13bf 793c d03d
00000010: dd2c 61be 61db 4ebe bf9d 0abf 7781 9dbe
00000020: 04e2 bfbd 2cc1 59be 4fe1 b2bd 54c0 2bbe
00000030: 2d6a 5f3a 8d63 2e3e d4b0 46be 283f a43e
-0.33366576 -0.3413296 -0.57660884 0.10167784 -0.2198977 -0.20200874 -0.5414695 -0.30762836
-0.09369281 -0.21265095 -0.087343805 -0.16772586 0.00085225963 0.17030163 -0.19403392 0.32079434

model/Generator/body/res_block_sce2/conv1/conv2d/bias f4 [16]
00000000: af59 323d df97 933c 9cb9 13bd 2cde b8bd
00000010: d1c2 98bd 625a 85bd a2f9 a83d 2e61 d4bd
00000020: 866e 743a 1576 bfba 9a24 c13d 6104 4d3d
00000030: 3396 923d a75c 943c dc70 5cbd 888d ccbd
0.04354256 0.018016754 -0.036065683 -0.09026751 -0.07459033 -0.0651138 0.08250739 -0.10370098
0.00093243306 -0.0014607335 0.09430809 0.050053004 0.071575545 0.018110586 -0.05381857 -0.099879324

model/Generator/body/res_block_sce2/dense1/b f4 [4]
00000000: 4ca7 773e 9568 a73d 76bd 653d a45b 0a3e
0.24184912 0.08174244 0.056088887 0.1351152

model/Generator/body/res_block_sce2/dense2/b f4 [16]
00000000: 830d 9d3d c820 68ba e5e9 8b3b b8ef 9cbb
00000010: d85b 4dbd 17e6 aeba 48ae d3bd 54c2 30be
00000020: 8f78 8cbd 6ce5 34bd c4b7 71bc 0af9 823b
00000030: 8611 223b a82e b4bc ec0e 3dbc 54d9 09bd
0.07668593 -0.00088549824 0.0042698258 -0.004789319 -0.050136417 -0.0013343719 -0.10335976 -0.1726163
-0.06858932 -0.044164106 -0.014753286 0.003996973 0.0024729683 -0.021994904 -0.011539202 -0.033654526

model/Generator/body/res_block_sce3/conv1/conv2d/bias f4 [16]
00000000: 992d 9f3d 8521 72bd 0447 ba3c 2ddc 313c
00000010: 5b11 33bc 560f bb3d b7b5 713d 2119 9fbd
00000020: 0824 36bd 601c d5bd 34f0 eeba 96bd 80bd
00000030: dd84 5abd 079f 04bd 6125 11bc 1ba7 89bd
0.07772369 -0.059113998 0.022738941 0.010855717 -0.010929431 0.091337845 0.059011187 -0.07768465
-0.044467956 -0.10405803 -0.0018229545 -0.06286161 -0.053349365 -0.032378223 -0.0088590095 -0.06721326

model/Generator/body/res_block_sce3/dense1/b f4 [4]
00000000: ffb2 113e cf44 9f3d ec98 9bbd 9125 633e
0.14228438 0.07776796 -0.07597527 0.22182299

model/Generator/body/res_block_sce3/dense2/b f4 [16]
00000000: e759 1c3e c01c bf3d 4b38 a7bd 41e2 603d
00000010: b048 a03d 0a36 6e3d a790 90bc e808 563e
00000020: 6f92 783d 2039 6fbd 47fd 893a 5907 7fbd
00000030: 9dc1 1a3d 17ba 8fbc 4956 2a3e 7ec3 723d
0.1526867 0.093316555 -0.08165034 0.054903273 0.07826364 0.058157004 -0.0176471 0.20901835
0.060686525 -0.058404088 0.0010527753 -0.062262867 0.0377823 -0.01754479 0.16634478 0.059268467

model/Generator/body/res_block_sce4/conv1/conv2d/bias f4 [16]
00000000: 4817 b73c 0ada e8bc ec0f 9d3d e40e ef3c
00000010: 65e2 2bbd 9180 fdbb cdd2 9f3d 4a7c bfbd
00000020: ce22 693d 1d22 96bd 6654 e93a cb23 ddbd
00000030: e6bf 65bc 50be 3f3d f225 20bd 05bb 40be
0.022349969 -0.028424282 0.076690525 0.029181905 -0.041963954 -0.0077362736 0.07803879 -0.09349878
0.056917958 -0.07330725 0.0017801642 -0.107978426 -0.014022803 0.046812356 -0.039098687 -0.18821342

model/Generator/body/res_block_sce4/dense1/b f4 [4]
00000000: 5400 823e e6b5 36bd 8643 8d3c 3c01 23bd
0.25390875 -0.044607066 0.017244112 -0.0397961

model/Generator/body/res_block_sce4/dense2/b f4 [16]
00000000: b097 aebc a7fc 8cbc d70f f3bd 94d6 94bd
00000010: c5ea afbd 6536 babc edea 50bd 70af e23d
00000020: 9117 113d 9402 5ebd 654b 383b dec2 3cbe
00000030: ad49 893d 5393 35bd 4c35 ea3c f5c3 0fbd
-0.021312565 -0.017210318 -0.118682556 -0.0726749 -0.085897006 -0.022731015 -0.051005293 0.11068618
0.035422865 -0.054201677 0.002812111 -0.18433711 0.06703506 -0.044329952 0.028589867 -0.03509899

model/Generator/body/res_block_sce5/conv1/conv2d/bias f4 [16]
00000000: 9709 983c 4c0e 08be c8f5 03bb 7a46 d53c
00000010: 5f0f 0bbe eb2b 38bd df2e 113d 9fc8 c83d
00000020: bb69 8a3d e5e3 543d 5c19 3abd 7bce 0cbc
00000030: fdee c93c 71ea f5bc a43c 29be 8643 953c
0.01855926 -0.13286704 -0.002013551 0.026034582 -0.13580082 -0.04496376 0.03544509 0.098038904
0.06758448 0.05197515 -0.04543434 -0.008594151 0.024650091 -0.030019017 -0.16527039 0.018220674

model/Generator/body/res_block_sce5/dense1/b f4 [4]
00000000: 1cad 863c 2dc8 4f3d f1ea 3f3e 2b71 ac3d
0.016439967 0.050728012 0.18741967 0.084200226

model/Generator/body/res_block_sce5/dense2/b f4 [16]
00000000: 85e9 73bd c6f3 0dbe 9c7b 84bc 970b 4bbd
00000010: 4568 47be ab3d babc 9f8d 0dbe 749a 0c3c
00000020: 48f5 f63a f9a7 563c 066c b4bc 5da6 5cbd
00000030: 7c06 8c3c 5464 d1bd 7f56 11bd d7fd 80bd
-0.059548873 -0.13862523 -0.016172223 -0.0495716 -0.1947337 -0.022734484 -0.13823555 0.008581746
0.001884141 0.013101571 -0.022024166 -0.053869594 0.017092936 -0.10224214 -0.03548288 -0.06298416

model/Generator/body/res_block_sce6/conv1/conv2d/bias f4 [16]
00000000: d7ae 7b3d b040 3cbd 5d97 20bd e7b1 11bd
00000010: e7d5 adbd 7672 80bd 5129 053e 2221 b63d
00000020: 393b 233e 33d8 4b3c f79d cb3d 5d4a 05bd
00000030: ba87 1b3c 96ba 203e f3e0 2cbd 704f 09bc
0.061446037 -0.04596013 -0.03920685 -0.03557005 -0.08488064 -0.06271832 0.13004042 0.08893038
0.1594056 0.012441683 0.09942239 -0.03254162 0.009492809 0.15696177 -0.042206716 -0.008380756

model/Generator/body/res_block_sce6/dense1/b f4 [4]
00000000: dba8 853d 8ea4 f53d ec2e 2f3d abea 8e3d
0.06526347 0.11994277 0.042769358 0.06978353

model/Generator/body/res_block_sce6/dense2/b f4 [16]
00000000: a45f 0ebe 5a9c ddbc 9a03 5ebe 269c 25be
00000010: 966c 393d a3e3 87bd 1c46 60be 8672 7cbe
00000020: 1119 e93d 5611 bcbd bc75 9bbd 4c74 a1bd
00000030: 3a56 49be 9335 22be 95d2 0c3d 2a01 31be
-0.13903672 -0.027052093 -0.21681061 -0.16172847 0.04526957 -0.06635215 -0.21901745 -0.24653062
0.11381734 -0.09182994 -0.075908154 -0.0788351 -0.19661799 -0.1584075 0.034380514 -0.172856

model/Generator/body/res_block_sce7/conv1/conv2d/bias f4 [16]
00000000: 1b12 0dbe 04c5 0ebd ac57 12be cd63 ff3d
00000010: 0ea5 123e 025b 693c ed14 763c 3552 313c
00000020: 94df 0dbc 79d3 e3bd efe8 983c 44c8 cd3d
00000030: 2501 1cbe 6919 a9bd f1fb f5bb cb7b 4f3d
-0.13776438 -0.034855857 -0.14291257 0.12470207 0.14320776 0.014242889 0.0150196375 0.010822822
-0.008659262 -0.111243196 0.018665759 0.10047963 -0.15234812 -0.082568 -0.0075068404 0.050655168

model/Generator/body/res_block_sce7/dense1/b f4 [4]
00000000: 8b9a 44bd dd28 213e edc0 c53d 24ac c63d
-0.047998946 0.15738244 0.09655938 0.09700802

model/Generator/body/res_block_sce7/dense2/b f4 [16]
00000000: bb1b 75bd 29f3 81bd 01a6 e8bd 4469 01bc
00000010: 4747 a7be 31d9 17bc 162f 583d ddf8 d73c
00000020: 1738 213c 9257 98bd 3005 88be 3e29 bdbd
00000030: f9b6 e8bd c998 21be 9080 c93d d33d b1bd
-0.0598409 -0.06345207 -0.11359788 -0.007898632 -0.32671568 -0.009268091 0.05277928 0.026363784
0.009840033 -0.07438578 -0.26566458 -0.09236382 -0.11363024 -0.15780939 0.098389745 -0.0865437

model/Generator/body/res_block_sce8/conv1/conv2d/bias f4 [16]
00000000: ca2c c53d b4c5 553d 0bce b93d 7d0d a43d
00000010: fd30 413d d662 913c 4084 32bc 3f10 953c
00000020: 3dbd e5bd 4a02 af3d 8815 283a 8225 de3d
00000030: e0ca 183e c383 8abe 7689 093d f66f 46bc
0.096276835 0.052190498 0.09072503 0.08010385 0.04716586 0.017747324 -0.010895789 0.018196223
-0.11217735 0.085453585 0.00064119 0.10846998 0.1492114 -0.2705365 0.03357836 -0.0121116545

model/Generator/body/res_block_sce8/dense1/b f4 [4]
00000000: 86d5 093e 1660 103e d1c5 353d e948 d2bc
0.13460359 0.14099154 0.044378106 -0.025669532

model/Generator/body/res_block_sce8/dense2/b f4 [16]
00000000: 85f0 46be 3e16 a43d 73ce c3bd f2ed fe3c
00000010: 1c9c d2bd e0f7 dbbd c3a9 f6bd fd25 643d
00000020: edd8 e2bd fde1 f1bd d42c 873c c0c0 d93c
00000030: 8838 063d 3bab c3bd 87e5 77bd 757d bebd
-0.19427688 0.08012055 -0.095608614 0.03111932 -0.10283682 -0.10740638 -0.12044098 0.05570029
-0.110765316 -0.11810682 0.016500868 0.026581168 0.032768756 -0.09554144 -0.06052163 -0.09301273

model/Generator/body/res_block_sce9/conv1/conv2d/bias f4 [16]
00000000: 35dd 623e dec0 54bd 7f47 513e f4a4 21be
00000010: 6bae 753d 433c 0cbe 1da6 81bd a9c0 9d3c
00000020: a363 c13c 0d29 d03c 4e9d fb3d 1bbe e6bd
00000030: eb6f ef3d 77c7 46bd 50a6 babd e4ec 0e3d
0.22154696 -0.051941745 0.2043743 -0.15785581 0.05998079 -0.13694863 -0.06330512 0.019256907
0.02360708 0.0254102 0.12285863 -0.112667285 0.116912685 -0.04853007 -0.09113753 0.034893885

model/Generator/body/res_block_sce9/dense1/b f4 [4]
00000000: 2773 9d3d 5098 e8bc 577c 043e 7384 64bc
0.07687979 -0.02839294 0.12938057 -0.013947594

model/Generator/body/res_block_sce9/dense2/b f4 [16]
00000000: ac32 ca3c b237 5dbd d107 09be 47df fcbd
00000010: 3d2c 99bc 5b11 a1bc 41b9 693c 0e75 b63d
00000020: b94c 83bd 934d 13bb 8b57 4d3c 61a6 6cbd
00000030: 102f 123c dcd6 713c 2a0c c63d 5d11 82bc
0.024682365 -0.054008193 -0.13381888 -0.12347274 -0.018697852 -0.019661596 0.014265359 0.08909045
-0.06411118 -0.0022476658 0.012533079 -0.05777586 0.008922353 0.014760699 0.09670289 -0.01587742

model/Generator/body/res_block_sce0/dense1/MatMul f4 [4, 16]
00000000: 11b3 b8bd 7ce0 83be 37c7 72be d81e 6abe
00000010: a887 a7be d897 3e3d 95ef 663e 8c4e 7dbe
00000020: e8bd 163e 1db7 06bd 6102 12be ddea 493e
00000030: 0b98 0cbe d30a aabd a163 0d3e 9820 cebe
00000040: f6bd 333f 4740 343e 9869 0bbe 64f5 953e
00000050: 29cb 7dbe 7c4c 863e a15e 26bd 30a3 cc3d
00000060: 9fad d8bd e91f 723c c3ac 3dbb e422 d63e
00000070: e4fc 2bbe 6adc 4b3d 0c12 85be d538 913e
00000080: 9d9b 593d d866 8abd a691 81bd 75fe 97be
00000090: 49e5 4dbd fefb 4bbc 068b 3ebc a050 2cbe
000000a0: eb10 dc3c 57a0 f73d ce07 3bbe 602d 813e
000000b0: 4793 d5bd 93c1 2dbc 3139 963d f19e 1dbe
000000c0: 9edd bdbe 3233 acbd e25b abbb 5955 2bbe
000000d0: fca5 92bd b0a8 74be 1211 f83e cb50 fdbd
000000e0: 9d44 17bc 02e8 dcbc 83a7 3ebe e9f8 0dbc
000000f0: 62cc 4bbe cf43 c8bb 4896 af3d 3912 3abe
-0.09018529 -0.25757205 -0.23708807 -0.22863328 -0.32720685 0.04653153 0.22552331 -0.24736995
0.14720881 -0.032889474 -0.1425872 0.197185 -0.13729875 -0.08302846 0.13807537 -0.40259242
0.7021173 0.17602645 -0.136145 0.2928878 -0.2478453 0.26230228 -0.04061759 0.09992063
-0.105799906 0.014778116 -0.0028942085 0.41823494 -0.16795689 0.04977075 -0.2599033 0.28363672
0.05312692 -0.06757897 -0.06326608 -0.29686323 -0.05026749 -0.012450216 -0.011629825 -0.16827631
0.026863536 0.12091129 -0.18264696 0.2522993 -0.104284815 -0.010605234 0.07335127 -0.15392663
-0.37083143 -0.08408202 -0.005229459 -0.16731776 -0.07160565 -0.23892474 0.48450524 -0.12368926
-0.009232667 -0.026966099 -0.18618588 -0.008665302 -0.19902185 -0.006111599 0.08573586 -0.18171014

model/Generator/body/res_block_sce0/dense2/MatMul f4 [16, 4]
00000000: d6ff 443d ba8e acbe 00b8 0abe a057 083f
00000010: 6b14 2a3e dddb bc3d 3bcf 953d e5ce 513d
00000020: 5079 83be 83c9 afbe 2021 4dbe 82a4 c13e
00000030: e56f 883e 9b72 42be 4495 b83c fc74 e1bc
00000040: 0afc b03b be3f 093e 05e2 f0bd 5706 13be
00000050: ac89 febc b577 6a3e ed38 503d 8f61 423d
00000060: d32a 1cbe 6d78 d6bd 3e0a ecbd 69e0 37be
00000070: 07c7 c83d 3abc fc3c fae4 7ebd b24e 2e3e
00000080: ee4c 903e fef4 ef3c 29b3 0dbe b5ea 2e3e
00000090: fbd9 d3be aa05 39bd 07ec 57be 0e59 dbbd
000000a0: 0189 383e 33e4 3fbe ea2a e63d 16a8 5a3e
000000b0: 9a62 23bd aee3 d6bd 9869 96be e135 9d3d
000000c0: 2e59 36bc d556 4b3e 4f4a c2bd 6ff6 a6be
000000d0: 77e1 adbb ffa1 5cbe 2952 0abb 237c 503e
000000e0: dd26 e63d e559 8ebe 1571 723e bfba 093f
000000f0: f6f1 393e af6d 6bbe 6aa0 833d eab7 a83d
0.048095547 -0.33702642 -0.13546753 0.53258705 0.16609351 0.09221623 0.07314917 0.0512227
-0.25678492 -0.3433343 -0.20032167 0.37820822 0.2664787 -0.18989031 0.022532113 -0.027521603
0.005401139 0.13403222 -0.1176186 -0.14357887 -0.031071506 0.22897227 0.05083554 0.04745632
-0.15250711 -0.10472188 -0.11525391 -0.179567 0.098035865 0.030851472 -0.062230088 0.17022207
0.28183693 0.029291626 -0.13837875 0.17081721 -0.41377243 -0.045171417 -0.21086131 -0.10710345
0.18021013 -0.18739395 0.11238654 0.21353182 -0.039888956 -0.10492645 -0.29377437 0.07676292
-0.0111296605 0.19857343 -0.094868295 -0.3260989 -0.0053064185 -0.21546172 -0.00211061 0.20359854
0.11237881 -0.2780296 0.2367595 0.53800577 0.18158707 -0.2299106 0.06427081 0.08238204

model/Generator/body/res_block_sce1/dense1/MatMul f4 [4, 16]
00000000: fa4a 85bd bbff 013e ca0a 8e3c 0031 afbe
00000010: 6846 53bd 3a75 58be 8434 f7be 456a 853d
00000020: b57b 2fbe 86e1 323d 3c3f d0be bb83 59bd
00000030: 4312 a9bd 83a1 6c3e 3d0c d73d 5970 95be
00000040: af31 943c eafe 3dbe b6c6 933d ccfb ff3c
00000050: bdc0 7f3d 33b9 f2bc b231 f8bb fb75 c43d
00000060: 2a4a 3cbc c43c 66bd b934 8f3d 0a83 873d
00000070: 223a 333d bdd7 dc3d bb79 283d e7fd 303d
00000080: 629f 38be 4b78 d33d 2497 e43e a682 7e3d
00000090: 7034 abbe d967 1abd 0756 d73c 09a4 003f
000000a0: df8d 4e3e 6f83 fe3d c2d2 7a3b ba1c b23e
000000b0: 0e2e 6bbe 840e 41be d0fc 0bbe 02c9 273c
000000c0: e65e ee3d d010 7d3c 7385 c6bc 18d8 f03d
000000d0: 1c20 d8bd 4a4b b2bd 2230 cfbd 6aa6 703e
000000e0: 1fb7 17bc 965d 08be c815 1abd 1146 3b3e
000000f0: 58f8 5ebe 2e41 1fbe 161b b43c 3a15 d5bd
-0.06508441 0.1269521 0.017339129 -0.34217072 -0.051580817 -0.21138468 -0.48282254 0.0651441
-0.17137034 0.043672107 -0.40673244 -0.053104144 -0.08255436 0.23108487 0.10500381 -0.29187277
0.018090097 -0.18554273 0.072156355 0.031247996 0.06243967 -0.029629325 -0.0075742835 0.095928155
-0.011492291 -0.056210294 0.06992478 0.066167906 0.04375661 0.10783336 0.041131716 0.04321089
-0.1802955 0.103256784 0.4464656 0.062136315 -0.33438444 -0.037696693 0.026286138 0.502503
0.20171307 0.12427413 0.0038272594 0.34787542 -0.22966787 -0.18853194 -0.13670659 0.010240795
0.11639194 0.015445903 -0.024233555 0.117599666 -0.105529994 -0.087057665 -0.101166025 0.23500982
-0.009259968 -0.1331695 -0.03761843 0.18288447 -0.21774423 -0.15552208 0.021985572 -0.10404439

model/Generator/body/res_block_sce1/dense2/MatMul f4 [16, 4]
00000000: 5146 a1bd 4416 d13d 179c cdbe 04ea 40bd
00000010: af51 493e be09 b4bc ef80 6dbd cf54 2e3e
00000020: 3630 a9be d2e7 1dbe 5949 32be ffa0 0a3c
00000030: 6b8b 183d 8fcb cabd f0a0 16bd e28d 5d3e
00000040: e400 fdbd b008 3ebc 88ad aabd fa5b 34be
00000050: 388e ae3a 7201 b2bd 675c 1c3e b9c6 203e
00000060: fbb3 49be 9cb2 093c 8f90 e03d ab6c b23e
00000070: 6dd1 2b3e a0e3 d9bd 21d1 5e3e f354 7e3e
00000080: 6281 2d3e 9484 aa3b 9e73 803c 8d61 c3bd
00000090: 6aab a63e bfee 263d 8d45 75be 6a08 dfbb
000000a0: 5dcd 77be 9dc4 99bd f1ff 763e 5bfa 123c
000000b0: 64c9 e7be dbff bf3d 4b83 983d 7251 92bc
000000c0: c1e6 8e3e 89da 083d 4871 57be c94a 713d
000000d0: b031 5cbe b032 dd3d b8be 92bd 820c 7a3c
000000e0: f614 963e edf1 8cbc faee 033d 164b bc3d
000000f0: 4f3f b2be 57de 58bd 3e7f 4ebe 1a6e 07bd
-0.0787474 0.10209325 -0.4015815 -0.047098175 0.19660066 -0.021977302 -0.05798429 0.1702454
-0.33044595 -0.15420464 -0.17410792 0.008461236 0.037242334 -0.09902107 -0.036774576 0.21636155
-0.123536855 -0.011598751 -0.0833388 -0.17613211 0.0013317531 -0.08691682 0.15269624 0.15700807
-0.19697563 0.0084044 0.10965072 0.34848532 0.16779108 -0.10639119 0.21759464 0.24837093
0.16943887 0.005203793 0.01568013 -0.09540091 0.32552654 0.04075503 -0.23952313 -0.006806423
-0.24199434 -0.07508204 0.24121071 0.008970822 -0.45270836 0.093749724 0.07446917 -0.017861102
0.27910426 0.033411536 -0.21039307 0.05890921 -0.2150333 0.108006835 -0.07165283 0.015261771
0.29312867 -0.017205203 0.032210328 0.09194009 -0.34813926 -0.052946415 -0.20165727 -0.033063985

model/Generator/body/res_block_sce10/dense1/MatMul f4 [4, 16]
00000000: dcbb 313f 3bf6 3f3e 1b84 74be c3c7 213e
00000010: ae23 18be d831 603e b74e ddbe deab 853d
00000020: 15eb 86be eeb0 6f3e c653 c53d b356 9bbe
00000030: 32ce 29be 353c 903e 1994 a7bd a173 50be
00000040: 2adc b2be f0b0 10bd baed e63d 85a2 2dbe
00000050: ab14 57be bf64 85be fd96 ec3e ac1c 35be
00000060: a27b 433e d7f7 a1bd 27fa 6ebe 4c43 7b3e
00000070: fede 1dbe 79db db3c 1fe7 74bd 8c68 c9bd
00000080: f8c3 c23d f716 37be b667 a23e c72a bebe
00000090: 9458 0f3e 94f4 563e f2d8 d43d 75c3 f63d
000000a0: ac2a 42be 08b0 04bf a4fe 01be 5b60 37be
000000b0: 7ae3 d93e da54 0fbe 0c54 d2bc 590c 1cbd
000000c0: 72ed 2b3f ad5b ab3e 6b3a 4fbe 1900 bd3e
000000d0: 6764 e9bd e281 7b3e de72 13bf 4d59 973e
000000e0: fc23 04be 1c8f 5b3e 0efc 48be a7ba d1be
000000f0: cf43 9cbd 167d 313d 1cbb 4c3e 213e 9bbd
0.69427276 0.18746273 -0.23878519 0.1579886 -0.1485736 0.21894014 -0.43224117 0.06526922
-0.26351228 0.23407337 0.09635119 -0.30339584 -0.16582564 0.28170934 -0.08182544 -0.20356609
-0.34933597 -0.03532499 0.112758115 -0.16956528 -0.21003978 -0.26053426 0.46208945 -0.17686719
0.19090131 -0.079086 -0.23337613 0.2453739 -0.15417096 0.026838051 -0.059790727 -0.09834394
0.09510034 -0.17879854 0.3171975 -0.37142012 0.13998634 0.20991737 0.103929415 0.12048999
-0.1896159 -0.518311 -0.12694794 -0.1790785 0.42556363 -0.13997212 -0.025674842 -0.038097713
0.6715919 0.3346838 -0.20237128 0.36914137 -0.11396103 0.24561265 -0.5759715 0.2956032
-0.12904352 0.2144131 -0.19627401 -0.40962717 -0.07630121 0.043332182 0.19993252 -0.075802095

model/Generator/body/res_block_sce10/dense2/MatMul f4 [16, 4]
00000000: c6e3 d7bc 8eee 23be a87a 643e a49e 433d
00000010: 4c06 c13d cf5a 54bd 8f3d ccbd 4e97 a33d
00000020: 665c 613d af68 94bc b754 ebbd 746f 973d
00000030: 71da 463d 440e 093e 35d9 81bd eda8 e33c
00000040: 777f 13bf 8e00 c83e 0314 c63c 2c39 e4be
00000050: 1640 3abf b2b0 533e beba 743e 3f6f aabe
00000060: a0f1 9ebd 9ca9 f4bd f5e4 0ebf 2c83 36bc
00000070: e8ef 96bd df8c f53e 1b22 42be 7d27 053c
00000080: b002 14bd db32 27be 7817 0f3e 2918 653d
00000090: 07cf 8a3d c165 8fbe ea26 33be 82dc 363e
000000a0: 0374 ddbc 081e 7d3e ad14 1cbe aac5 1cbd
000000b0: 3baa 2abd 3f63 27bb 6663 cebe da4b 18bc
000000c0: 0032 d4be e2bd 0e3f a997 b83e 3f7f eabe
000000d0: 802f 95bd 4203 a0be 4d8a 233e a7a3 94bd
000000e0: d253 073e 0054 02be c728 b73c 4187 573c
000000f0: 9695 53be b7fb 473e f119 f3bd bda7 c0be
-0.026353728 -0.1600897 0.22312415 0.047758713 0.09425029 -0.051844414 -0.09972679 0.079878435
0.05501976 -0.018116323 -0.114907674 0.07394305 0.048548166 0.13384348 -0.06340257 0.027790511
-0.5761637 0.39062923 0.024179464 -0.4457487 -0.7275404 0.20672873 0.23899361 -0.33288
-0.0776093 -0.11946413 -0.5581811 -0.011139672 -0.07369977 0.4795904 -0.18958323 0.0081270905
-0.036135375 -0.16327994 0.13973796 0.055931244 0.067777686 -0.2800732 -0.17495313 0.17857555
-0.027032858 0.24718487 -0.15242262 -0.038274445 -0.04166625 -0.0025541333 -0.4031021 -0.009295428
-0.41444397 0.5575849 0.36053208 -0.45800206 -0.072844505 -0.31252486 0.15970726 -0.07257777
0.13215569 -0.12727356 0.022358311 0.013154806 -0.20662531 0.19529615 -0.11870182 -0.37627974

model/Generator/body/res_block_sce11/dense1/MatMul f4 [4, 16]
00000000: 5ff2 393e 89dd f3bc 1905 84bc deb8 9c3e
00000010: f22d 06be ce3e 07bb 039e fbbd 530d 70bc
00000020: ce26 91bc 7fbe bdbe 68c4 ef3e 9b1d 15be
00000030: f1c9 ee3e d07f 90bc 75b0 9a3e 03bf ad3d
00000040: 7cc6 9dbe e11b 31be fe97 b73d 8870 8abd
00000050: 399b acbe 7acc 6bbe 4b4c 6a3e 95b2 823d
00000060: dc5c 6e3e 121e b83d 5dd6 6dbe 281a 673c
00000070: 290a d13d 4109 e1bc bf36 893e 05f3 1d3e
00000080: f396 9cbe 278a 8abc 2ea5 d8bd 365b 23be
00000090: ba60 58bc 5d0d c7be ae52 b0be bae0 67be
000000a0: 7cba 4bbe 0a23 b73e 50b0 49be 9bcc cd3d
000000b0: 31bb a03e a214 66be 3587 763e 2431 49be
000000c0: 5c53 0c3c 115f 90be 2975 1dbe 19db 023e
000000d0: 0085 123e c1e6 ebbd eddd 26be 39d4 edbb
000000e0: a0ed bebe 3819 febe da68 fb3d f902 1b3e
000000f0: 67c9 7fbe ba59 033f 5ecc a7be cbe8 543d
0.18158863 -0.029768722 -0.016115712 0.30609792 -0.13103464 -0.00206368 -0.12285998 -0.014651614
-0.017718699 -0.370594 0.46829534 -0.14562075 0.46638444 -0.01763907 0.3021275 0.08483698
-0.30815494 -0.17295791 0.08964537 -0.06759745 -0.33712175 -0.2302722 0.22880666 0.06381718
0.2327761 0.089901105 -0.23226304 0.014105357 0.10207016 -0.027470233 0.2679958 0.15424736
-0.30583915 -0.01691158 -0.105783805 -0.15952763 -0.013206655 -0.38877383 -0.3443808 -0.2264432
-0.19895357 0.3576892 -0.19696164 0.10048791 0.31392816 -0.22468808 0.24075015 -0.19647652
0.008564796 -0.2819753 -0.15376724 0.12778892 0.14308548 -0.11518622 -0.16295595 -0.007257965
-0.37290668 -0.49628615 0.12275858 0.15137853 -0.24979173 0.51308787 -0.32773107 0.05197982

model/Generator/body/res_block_sce11/dense2/MatMul f4 [16, 4]
00000000: 3d86 8bbd dd17 69be d2ce 1cbe 1033 cc3e
00000010: 35e1 81bd bfdf 113e 144c 253d 17b2 1abe
00000020: 6118 45be f30a 683e 8a37 c6bc 88bc c93d
00000030: 5c82 32be 6021 c03d ee8a b0bd 02fc a83d
00000040: 94f6 d63b eea3 a93e f6f5 8d3e b31a c1be
00000050: d7e6 51be f39d 28bd 9220 953e 4b98 9bbe
00000060: 09e1 6f3e 004f bbbe c30a 0f3e 68f5 2bbe
00000070: a277 2fbd 05c5 17be 0754 753d 88db 253e
00000080: 1ecd 24be a8b4 14bf 614c f0bd 028b 2abe
00000090: 5dca d2be f5c5 fa3e 608e 2c3e 32d4 30bd
000000a0: 048d 55be f460 b83e c5de 7d3e e0d8 e8be
000000b0: 5048 6fbe 32e4 02bd f136 1d3e ca75 06bf
000000c0: c2fa 293e d89a 0d3e 0ec7 2ebd e5c7 40be
000000d0: dd12 eb3e d0eb 3e3e 0b70 40bd 068a 83bd
000000e0: 56ea 643e f374 883c 2751 6fbe 7018 c63e
000000f0: ea14 02be 2544 67be c358 2ebf 50fe 5b3d
-0.06812713 -0.2276301 -0.1531327 0.39882708 -0.06341783 0.14245509 0.040355757 -0.15106998
-0.19247581 0.22660427 -0.024196405 0.098504126 -0.1743254 0.09381366 -0.08620249 0.08251192
0.006560156 0.3313288 0.27726716 -0.37715682 -0.20498215 -0.041166257 0.29126412 -0.30389628
0.23425688 -0.3658371 0.13968949 -0.16792834 -0.0428387 -0.1482125 0.059894588 0.16197026
-0.16093871 -0.5808816 -0.11733318 -0.1665459 -0.41170016 0.48979154 0.16851187 -0.043171115
-0.20854574 0.3601147 0.24792011 -0.45477962 -0.23367429 -0.031955905 0.1535299 -0.5252348
0.16599563 0.138286 -0.042670302 -0.18826254 0.4591283 0.18644643 -0.046981853 -0.0642281
0.22355017 0.016657328 -0.23370801 0.3869052 -0.1270329 -0.22584589 -0.6810419 0.05370933

model/Generator/body/res_block_sce12/dense1/MatMul f4 [4, 16]
00000000: f353 673e 3026 583e 92f7 d23d b6e1 2e3e
00000010: 4fb9 953c 6e8f 3cbe fb77 e23c 4abe 61bd
00000020: 19be 86bd fabb d5bd 9dec 8a3d fc3d ff3d
00000030: 1842 0b3e c733 163e cc29 acbe ccc6 04be
00000040: c5a2 103c c29e fa3e 4f79 7f3e 64c3 2d3d
00000050: fbc8 eb3e a064 8cbe 33f5 043e f78b 5ebe
00000060: d04b fcbb 6132 163e ebf1 553c 3b8b 553e
00000070: d063 6f3d bd7f 8e3e e882 863e 5b31 8c3e
00000080: 1efb bb3d 3ab7 b33e 1ae8 6abe 5fc9 f73d
00000090: 1164 2a3e bbc6 8fbe 6e6e 24bc eb94 06be
000000a0: 6518 8fbd f4f9 973e c06b bb3d 73e3 dbbc
000000b0: 1d50 9f3d 42df 883e 0e6b b63e 7cf1 a73e
000000c0: 69f8 81be 7db5 11bc f35a 4e3e efc0 2bbe
000000d0: 8f13 ae3d ecb1 60be 80cb 42be 4c0d 543d
000000e0: b05f 183e 4d39 553c 101d bebe eef9 ae3e
000000f0: 21b7 8b3e 53b8 c5be e684 ed3d 0a89 a43e
0.22590618 0.21108317 0.103011265 0.1707829 0.018276839 -0.18414089 0.027645102 -0.055113114
-0.06579227 -0.10436244 0.06783412 0.124629945 0.13599432 0.14668189 -0.33625638 -0.1296646
0.00882787 0.48949248 0.2494862 0.042422667 0.46051773 -0.2742052 0.12984161 -0.2173308
-0.0076994672 0.14667656 0.013058166 0.20853893 0.058444798 0.27831832 0.2627175 0.27381405
0.09178756 0.35100728 -0.22940102 0.12098955 0.16639735 -0.28081307 -0.010036094 -0.13142745
-0.06987075 0.29682887 0.09151411 -0.026841855 0.07778952 0.26732832 0.3562855 0.32801425
-0.25384834 -0.008893368 0.20151882 -0.16772817 0.08499824 -0.21942872 -0.19022942 0.051770493
0.14880252 0.01301415 -0.37131548 0.34175056 0.27288154 -0.3861719 0.11597614 0.32135803

model/Generator/body/res_block_sce12/dense2/MatMul f4 [16, 4]
00000000: 1cef 2fbe 45d2 9dbe c298 e9bd 5c06 9cbd
00000010: 8fc3 843d 2216 f3bc c4fb 01be 1d54 e53c
00000020: c4b9 1bbe 75ce 41bd b58f 01bd 050e 283d
00000030: 58c9 20be a557 98be 315c 0cbe fbdf bbbe
00000040: e692 46be 6ba3 033e 13f9 1a3d 5301 883d
00000050: e761 4cbe 0e11 80be 8e17 a8be d38a 91be
00000060: b38a a43d 5a2f 873d d51a 063e 2404 993e
00000070: 76bb 563e 15a5 943d fe2b f13d 5e15 943e
00000080: 6c32 8abe bcf7 e2be a038 59be 375f ee3e
00000090: 5494 47be 87db 483e b618 503e db14 b73d
000000a0: e21e 963d 1b49 62be 5abb 2fbd 0c60 803e
000000b0: 8d9b 56bd a0f8 cfbe b4d3 a9be 03e8 043e
000000c0: e897 8b3d f6cb 94be 0de9 3fbe e721 d83d
000000d0: d57f bc3d 9e81 b7be 9ab4 c8bc dfad e7be
000000e0: a472 0dbe 6123 acbd 12b6 303e f56b a7be
000000f0: fec6 59be c69f 233d 8cf0 133e 7f66 c8be
-0.17181057 -0.30824485 -0.11406089 -0.076184005 0.06482612 -0.02967364 -0.12693697 0.02799421
-0.15207583 -0.047316033 -0.03163119 0.041028995 -0.15701807 -0.29754367 -0.13707043 -0.3669432
-0.19391975 0.12855308 0.037835192 0.066408776 -0.19959222 -0.25013012 -0.3283047 -0.28426227
0.08034267 0.066008285 0.13096173 0.29885972 0.20969948 0.072580494 0.11775969 0.28922552
-0.26991594 -0.4432963 -0.21213007 0.46557018 -0.19490176 0.19614993 0.20321926 0.08939525
0.07330109 -0.220982 -0.04290328 0.25073278 -0.05239444 -0.40619373 -0.3316933 0.1297913
0.06816083 -0.2906186 -0.18741246 0.10553341 0.092040695 -0.35841078 -0.02450018 -0.4524984
-0.13813263 -0.084051855 0.17256954 -0.32699552 -0.21267316 0.039947294 0.1444723 -0.39140698

model/Generator/body/res_block_sce13/dense1/MatMul f4 [4, 16]
00000000: 32ba fd3d 02b8 a13e a288 ff3d aa75 81be
00000010: 558a c83d 127d f3be a21d 5fbe e56c 013e
00000020: 1350 653e d1fd 8a3e f7fb 8f3e ca30 2a3e
00000030: 9065 f53e 9ea2 c33e 6ecd ab3e 23b3 c7bd
00000040: 9100 b4bc 45a3 75be ff86 8ebe 30c0 ab3e
00000050: 1aad 303e 30cf 8b3e e5ff aa3e fe26 29bd
00000060: b07d c1be dff0 2e3e 7810 5abe b926 42be
00000070: 2604 59bd ee5f b1be 8612 80bd 6f98 6e3e
00000080: 2dff 7abd 935e babe 7bd9 a3be d3aa 73bd
00000090: 9a6e 953e a3a9 b43e 7f77 c23e c5a9 f7be
000000a0: e358 bdbe 0481 f9bd 4b57 f9bd 68b3 b3bd
000000b0: 5950 f7be 617c ccbe 6f31 93be 7714 ed3c
000000c0: 7d96 323c a7bc ae3d 862a e0be 8a23 aa3d
000000d0: 94de b63d 1b1d f43e 087f a13e f577 bdbe
000000e0: 23d8 cdbe 41fd ddbe 8e64 2bbd 1767 58be
000000f0: f58c 0fbf 32b6 c4be fdda a5be 76bd 633e
0.123890296 0.315857 0.124772325 -0.25285083 0.0979201 -0.4755636 -0.21788648 0.12639196
0.22393827 0.27146772 0.2812192 0.16620174 0.4792905 0.38210005 0.33555168 -0.097509645
-0.021972926 -0.23988064 -0.2783737 0.33545065 0.17253533 0.2730651 0.33398357 -0.04129695
-0.37791204 0.17084073 -0.21295345 -0.18960084 -0.052982472 -0.346435 -0.06253533 0.23300336
-0.06127851 -0.3640028 -0.32001862 -0.059489083 0.29185945 0.35285673 0.37981793 -0.4837171
-0.36981878 -0.12182811 -0.12174853 -0.087744534 -0.48303488 -0.39938644 -0.28748652 0.028940422
0.010900137 0.08532076 -0.43782443 0.0830756 0.08929172 0.47678456 0.3154223 -0.37005582
-0.40203962 -0.4335728 -0.041843943 -0.21133076 -0.5607446 -0.38420254 -0.32393637 0.22240242

model/Generator/body/res_block_sce13/dense2/MatMul f4 [16, 4]
00000000: a87b 8dbe be9f ad3d b589 d53e a3e5 823e
00000010: 3de2 cdbe e0d4 cd3c 5e21 0d3e 5e72 eabd
00000020: b7b5 ccbe 216c 07be 722e bbbd d91a 70bd
00000030: 5cc8 f23b f205 8dbc dbf0 7dbd ef49 153e
00000040: 0c88 723e b30b 8cbe 178f 1ebe 0675 d9be
00000050: 1224 cebc 266b f43d 92c5 cd3e 11b5 143f
00000060: 8f90 0bbe 237f 3e3d 6668 513d b744 673d
00000070: 0662 493e 5389 7d3c ff22 8abb 26ee df3d
00000080: b35e 68bd 65dc 35bd b68d 7abe cfc0 6fbe
00000090: 81ef 483e 6edb 54be 75c1 8abc 9529 5fbe
000000a0: 3122 6abc dfc6 ce3d b408 3c3d f9f9 cf3d
000000b0: 9050 883e 2972 f8be 43d1 9bbe 0dad 58be
000000c0: b458 973d 5455 0fbd 86a9 b53d 908a c1bd
000000d0: 219f d5bd e4d5 bd3d 58b2 1e3e 4ae4 2a3d
000000e0: e53f a7be 5f17 e63e d9ed c53e 1ec0 473e
000000f0: 46b1 b43e 25d6 72be 6868 b6be c052 17bf
-0.27633405 0.08477734 0.41706625 0.25565824 -0.4021167 0.02512592 0.1378226 -0.11447595
-0.39982387 -0.13224842 -0.09139718 -0.058619354 0.0074091386 -0.017214749 -0.061997276 0.14578985
0.2368471 -0.27352676 -0.15484272 -0.42472094 -0.025163684 0.119344994 0.40189797 0.58088785
-0.13629363 0.046507966 0.051124953 0.056462016 0.19666299 0.015474635 -0.0042155976 0.10934095
-0.056730937 -0.044399638 -0.24468121 -0.23413394 0.19622613 -0.20786831 -0.01693795 -0.21793206
-0.014290378 0.100965254 0.045906737 0.101551004 0.26623964 -0.48524597 -0.30433092 -0.21159764
0.07389966 -0.034993485 0.08870225 -0.09450257 -0.10430742 0.09269312 0.1549772 0.04172162
-0.32665935 0.44939706 0.38658026 0.1950688 0.352915 -0.23714502 -0.3562653 -0.5911064

model/Generator/body/res_block_sce14/dense1/MatMul f4 [4, 16]
00000000: f7e9 debd b353 7dbd 6f2b 16be f201 993c
00000010: d703 b1be c58f f4bd cb72 243e bffd e23c
00000020: c447 06be 6a84 7a3e f98b 90be 09c1 4cbd
00000030: 4ddb e3bd 8471 8b3e a4ec 013d 432a 253e
00000040: 2193 45be ec83 54be 2af4 b0bc 99d4 783e
00000050: 3045 303e 276a a1bd d779 693e be9e 7dbe
00000060: 85c6 73bf fd16 c5bc 4626 a3bd 67fd 32be
00000070: 6739 dabe 54c9 283e 8021 3abf 5b15 b03e
00000080: 0465 44bd e320 863c 713a 9dbe 5392 6dbe
00000090: bbea 083e d83d 2fbe 56ed eabe 419d d33d
000000a0: 52e3 053f 8382 da3d 34f6 1cbe eea4 ab3b
000000b0: 0879 9f3e 740a 9abc df43 073f 82ac 95be
000000c0: 3ba9 b9bd 00fa ba3d 15fe 8bbe 188c 4dbe
000000d0: fc51 4dbe 4420 41be 95e8 84be b106 b13d
000000e0: 3dec e53e b537 7b3e 2650 ffbc 66c8 9d3e
000000f0: 0ddd 463e 595b 573d f365 f23e 0830 40be
-0.10884469 -0.0618474 -0.14665006 0.018677685 -0.34573242 -0.11941484 0.16059415 0.027708886
-0.13113314 0.24464574 -0.2823179 -0.04998878 -0.11125813 0.27235043 0.03171982 0.16129403
-0.19294406 -0.20753449 -0.021600801 0.2429985 0.17213893 -0.07881575 0.22800384 -0.24767587
-0.9522479 -0.024058813 -0.079662845 -0.17479478 -0.4262192 0.1648305 -0.72707367 0.34391293
-0.0479479 0.016373103 -0.3070865 -0.2320035 0.13370793 -0.17113435 -0.45884198 0.10332728
0.5229999 0.106694244 -0.15328294 0.005238167 0.31147027 -0.018803813 0.5283794 -0.29233176
-0.09065481 0.09129715 -0.27342287 -0.20072973 -0.20050806 -0.18859965 -0.25958696 0.086438544
0.44906798 0.2453297 -0.031166147 0.30816954 0.19420262 0.05257735 0.47343406 -0.18768322

model/Generator/body/res_block_sce14/dense2/MatMul f4 [16, 4]
00000000: 1880 aabd 0c67 0cbe dbeb 37be f6a8 663d
00000010: 0711 1cbd 6462 04bf bbd2 dc3c a4dd 5e3e
00000020: ca87 02be 6dd3 663e 27dc 05be c234 babd
00000030: 8111 45be ec97 c8be 8d1c f13c 54ba 883e
00000040: 67a4 9dbd 4a06 59be 79a1 493e 7501 0a3e
00000050: 0c23 8bbe d247 e8be b332 623e 3e08 673e
00000060: dacf 60be 78b1 4dbf 1e22 cd3d c1a6 383e
00000070: bf11 e63d 3de6 24bf b53e 363e 68bb 063e
00000080: 694f 79be 6ed3 74be 1c7a 15bf adf2 a5be
00000090: 272b cc3c 487a d53e 98a4 39be 80c7 69be
000000a0: 1815 5dbd 7d4a dbbe c9c7 47be 71cd fd3c
000000b0: 3f9c f2bd ae67 8c3e 2476 7ebe 5881 01be
000000c0: b429 0ebf ff1a 02bf 9c5f f4bd a439 ed3d
000000d0: 7149 28be d5d2 61be 73bc fd3e 72d5 8d3e
000000e0: fbe3 46be 9164 c03e 8688 2a3d b667 a7bd
000000f0: 50b9 183e 59ca d93e 8610 3cbf 39ea 14bf
-0.08325213 -0.13711184 -0.17961065 0.056313477 -0.038102176 -0.5171263 0.026955953 0.21764237
-0.12747112 0.2254159 -0.13072263 -0.09092094 -0.19244958 -0.39178407 0.02943256 0.26704657
-0.07697373 -0.21193805 0.19690503 0.13477118 -0.27175176 -0.45367295 0.22089653 0.22561738
-0.21954289 -0.8034892 0.10016273 0.18032362 0.112338535 -0.64413816 0.17797358 0.13157427
-0.24346699 -0.23908779 -0.5838945 -0.3241171 0.02492292 0.41694856 -0.18129194 -0.2283001
-0.053975195 -0.42830268 -0.19509806 0.030981751 -0.11846208 0.2742285 -0.24849755 -0.12646997
-0.55532384 -0.5082244 -0.119322985 0.1158326 -0.16434266 -0.22053082 0.49557838 0.27701908
-0.19422905 0.37576726 0.041634105 -0.08174078 0.14914441 0.42537192 -0.7346271 -0.58169895

model/Generator/body/res_block_sce15/dense1/MatMul f4 [4, 16]
00000000: ef78 5b3e 5d04 05bd 2855 4e3d a3cf 80be
00000010: 4caf 27bc 47b0 6f3d 293e 2d3e 16bb a03e
00000020: e42c 053e 7780 1dbe cabd d8bd 8603 c83c
00000030: a664 973e 5439 ee3e f8eb 01be fc4e 8dbe
00000040: 4621 12bd bc04 4f3d bd62 80bd 611a 94bc
00000050: cf59 023e e51e 7cbe c3e5 b5bd 5272 91bd
00000060: d84f fbbd c4d8 5b3e 7052 09bd 4846 c2bd
00000070: 249a ac3d fddd dd3d a6a1 4e3e 4219 82bc
00000080: 2187 d5bd 0855 9dbe 3617 0a3e 2ab2 053e
00000090: 57b0 f63b 31ff 073c 6718 69be 1ff4 3c3c
000000a0: 246b 0c3e 5a31 14bc 1809 d5bd b55e 5f3d
000000b0: 2aff d33d 54c7 6b3e af6b c23d a09b 8a3e
000000c0: 8162 a03e 35fa 173e d643 943d 27a4 623d
000000d0: 021a 74be 32c7 7a3d 027f 4f3f dfcd 763e
000000e0: 1740 bd3c 9f6c 4b3d fd01 8f3e 372b 0a3d
000000f0: 9224 6a3d 54fd ae3e df9e efbd 02f4 2abf
0.21432851 -0.032474864 0.05037418 -0.25158414 -0.010234665 0.05851772 0.16918243 0.31392735
0.13005406 -0.15381037 -0.105830744 0.024415743 0.29568976 0.46528113 -0.12687671 -0.27599323
-0.035676263 0.050541624 -0.06268833 -0.018078985 0.12729572 -0.2462116 -0.08881714 -0.07101883
-0.12271088 0.21469408 -0.033525884 -0.09486061 0.084278375 0.108333565 0.20178851 -0.015881184
-0.104261644 -0.30728936 0.13485417 0.13056245 0.0075283456 0.0083005885 -0.22763215 0.011532812
0.13712746 -0.009044969 -0.10402125 0.05453368 0.10351403 0.23025256 0.09493195 0.27071857
0.31325153 0.1484154 0.07239501 0.05533233 -0.23838046 0.061225124 0.81053174 0.24101971
0.02310185 0.049664136 0.27931204 0.03373262 0.057163782 0.3417765 -0.11700224 -0.66778576

model/Generator/body/res_block_sce15/dense2/MatMul f4 [16, 4]
00000000: 8958 bc3d 5f06 eebd 5e80 4ebe b317 2abe
00000010: 3f95 203e 8843 983d db4b 56bd 57cf 603e
00000020: 89ab 02be 5dc9 ab3d 9403 d8be 3eb3 0ebe
00000030: 4585 103d 9292 3fbd d65c b3bb 0cab 8abc
00000040: 5497 05be 4e27 debd f685 aebd b813 82be
00000050: 318f 063e b5d2 073e 3937 2b3e b214 753d
00000060: f385 aabe 537c a8bd 6c3e 90be a2b4 1fbe
00000070: 5915 89bd d6f1 95be df06 f4bc 824c b9bd
00000080: 50dd a13e 8bbf e0bd df90 5e3c d76f 0a3f
00000090: 7f17 0ebe 7a36 4f3e 96e5 fbbd db58 b8be
000000a0: 2e24 d2be 1c0a 433e 1bbc 6dbe e493 70bf
000000b0: 5092 00bf 58c6 593b acd0 50be 0e77 50bf
000000c0: 37f2 8cbe e2e1 873d 190b 80be d091 e7be
000000d0: d72e 723c a082 82bd 8022 cfbd d030 2dbe
000000e0: fa65 083d 1deb 8ebb 7cfe 54bd f13f 2a3e
000000f0: d462 31be ddad 7d3c 6898 a2bd db6a 5fbc
0.09196574 -0.11622309 -0.20166156 -0.16610603 0.15681933 0.074347556 -0.052318435 0.21954094
-0.12760748 0.083880164 -0.4219023 -0.13935563 0.035283346 -0.04677064 -0.0054737134 -0.016927265
-0.13046008 -0.108473405 -0.08521645 -0.2540567 0.1314056 0.13263972 0.16720285 0.05983419
-0.3330532 -0.08226838 -0.28172624 -0.1559625 -0.06693525 -0.2928607 -0.029788433 -0.09047796
0.3161416 -0.10974034 0.013584345 0.54076904 -0.1387615 0.20235625 -0.122996494 -0.3600529
-0.41043228 0.19046825 -0.23216288 -0.93975663 -0.50223255 0.0033229794 -0.20392102 -0.81431663
-0.27528545 0.066348806 -0.25008467 -0.45228434 0.014781675 -0.06372571 -0.10114002 -0.16913152
0.033300377 -0.004361524 -0.052000508 0.16625954 -0.17322856 0.015483347 -0.079392254 -0.013636316

model/Generator/body/res_block_sce16/dense1/MatMul f4 [4, 16]
00000000: d067 c13d ffb3 b1bd 6681 1b3d 243f 9d3d
00000010: cfa1 22be 57b8 7bbe 67b7 3a3e 22f4 863e
00000020: 9251 0d3f 7797 28be 30fc a8be c1b9 ca3e
00000030: 2b79 d83e 5462 e23c 124e 803e 5a2c 503e
00000040: 97b3 363d 3b4e 113e 4abb b6bd 4d0d 11be
00000050: 776c ed3c 711a 8f3d 88ce 623e 528e 3abd
00000060: 35ff 723e b39e 59be 422e 43bd 8859 8e3d
00000070: 90ca 8a3d 7f5f a7be bcf5 1e3e 0799 99be
00000080: 270f 193e 4310 75be f9fc 033e d076 8d38
00000090: c569 e83d 60c7 a1be 3817 7bbc ede1 303c
000000a0: 0926 1a3f 5019 28bd d019 39be 0125 9c3e
000000b0: a5bc 423e 70b8 e23d 8035 3cbc bb76 c0bc
000000c0: 5b4e 883d a994 aa3d 9209 b2ba 558d 843c
000000d0: eb7a 623d af07 743e 0006 b53c fcd6 ae3b
000000e0: 563c bc3e 2582 2ebe 7cc1 5b3d 8ffb f9bc
000000f0: eed8 07bd fdf9 20be 8c41 48be 1acf f5bc
0.09443629 -0.0867691 0.0379652 0.07678059 -0.15882038 -0.24582039 0.18234025 0.26358134
0.5520259 -0.16464029 -0.33004904 0.39594844 0.42279944 0.027634777 0.25059563 0.20329419
0.044604864 0.14189999 -0.08922441 -0.1416523 0.028982384 0.06987465 0.22149098 -0.045545883
0.23730166 -0.21251945 -0.047651537 0.069506705 0.06776917 -0.32690045 0.15523428 -0.29999563
0.14947186 -0.23931985 0.1288947 6.7455345e-05 0.11348299 -0.31597424 -0.01532536 0.010796052
0.6021429 -0.041039765 -0.18076253 0.30496982 0.19017275 0.11070335 -0.011487365 -0.023494115
0.0665557 0.08329136 -0.0013583174 0.016180674 0.055293005 0.23831056 0.022097588 0.0053356867
0.36764783 -0.17041834 0.053651318 -0.03051546 -0.033165865 -0.15720363 -0.19556254 -0.03000598

model/Generator/body/res_block_sce16/dense2/MatMul f4 [16, 4]
00000000: a09d 9bbd fc09 493e cef8 413e 6d13 873e
00000010: 878b 3c3e 111f 1c3d cfe6 723c 39a8 1b3e
00000020: 497a 01bf cf5c cf3d f2b1 c0be 1335 373d
00000030: e7d0 42be 72d3 cc3e 4fd8 f43d c01f 85bc
00000040: 6030 45bd 2fbf 503e 553c 2dbe d1bb e03d
00000050: 9513 b9be fda2 813d 12b9 15be 187e b53d
00000060: bc20 a53e a77e 903d 90cd 253e 622f 8bbe
00000070: 50a4 6c3e bc31 21be e806 a73e 103c 25be
00000080: 9a5e eebd 0210 9bbe 295a 49be b4f1 ed3d
00000090: 15fe 473e c237 3ebe bd86 69bc 0218 d43d
000000a0: ccb9 cabe 1bbb 1338 0ac2 a3be 64e3 7b3c
000000b0: a34d 033e 86cf 1fbf de43 773d f53c 563e
000000c0: f76a 3cbf a033 83be e623 1cbf 0cd9 963e
000000d0: 9fda 4ebe ea88 aa3b fc20 13bd 5781 70be
000000e0: efb8 5b3d ae5c a33d a181 e73c 8ec6 88bb
000000f0: 842a fc3c 61e7 9f3e aba1 4abb 0d06 953d
-0.07598424 0.19632715 0.18942568 0.26382008 0.184126 0.038115565 0.014825537 0.1520089
-0.5057722 0.10125124 -0.37635761 0.04472835 -0.19025002 0.4000507 0.1195532 -0.016250491
-0.048141837 0.20385431 -0.16917546 0.10973323 -0.36147752 0.06329916 -0.1462138 0.08861941
0.32251537 0.07055407 0.16191697 -0.27184588 0.23109555 -0.15741628 0.32622457 -0.16136193
-0.116391376 -0.3028565 -0.196633 0.11618367 0.19530518 -0.18575957 -0.0142533155 0.103561416
-0.39594877 3.5221787e-05 -0.31983978 0.015374038 0.12822585 -0.6242603 0.060367458 0.20921691
-0.73600715 -0.25625324 -0.60992277 0.2946247 -0.20200585 0.0052043097 -0.03592013 -0.23486839
0.053643163 0.079766616 0.028260054 -0.00417406 0.030781992 0.31231216 -0.0030919116 0.07276545

model/Generator/body/res_block_sce17/dense1/MatMul f4 [4, 16]
00000000: fd7a ee3d ade8 c53e 6b6f 823e a8f9 29be
00000010: e552 e3be b917 8b3e 4416 e6bd bb22 923b
00000020: 838b 083e f31c a3bc 5e45 183d 8fbd 073e
00000030: c4fe 0f3d a42f 613d 76bb 23be 83a5 85bd
00000040: ecb4 a9be ddf7 9c3e 054f de3d 0988 42be
00000050: bc0d e43a 267e 5bbc f921 df3d b314 3d3f
00000060: a2cf cdbd 7268 4c3e d03d 0c3d 9ca4 a53e
00000070: bcc2 7e3e 17da d93e 696e 1f3e 8951 4cbe
00000080: 122e 60be 00bd f1bc 35d9 833d 7854 00be
00000090: 7e77 0bbe 2227 09bf b9f1 723e d3ee 9e3d
000000a0: d2f4 c33d 53c0 afbe 2460 83be c380 1a3e
000000b0: 88ad 983e 8679 10be 1861 9a3e fff0 023e
000000c0: 915d 3bbe fe3b 0abe 5965 e6bd 587e e8bc
000000d0: 1fa2 1e3e 5e2f 023e 520c 18be 8256 b2be
000000e0: 3e3f a53e a1f1 62be 2bd6 9ebe 0f48 e9bd
000000f0: 9d95 b5be c739 debe e9d9 163e 44ab f63d
0.11644552 0.3865408 0.2547563 -0.16599143 -0.4439918 0.27166536 -0.112347156 0.0044597066
0.1333447 -0.019911265 0.03717553 0.13255905 0.035155073 0.054977074 -0.1598948 -0.065257095
-0.33145845 0.30657855 0.108549155 -0.18997206 0.0017399113 -0.013396775 0.10895152 0.7385971
-0.100493684 0.19961718 0.034238636 0.3235215 0.24878973 0.42549202 0.15569462 -0.19952978
-0.21892574 -0.029509068 0.06437913 -0.12532222 -0.13619801 -0.53575337 0.23725022 0.07760396
0.0956818 -0.3432642 -0.25659287 0.15088181 0.29819894 -0.14108858 0.30152202 0.12787245
-0.18297412 -0.13499448 -0.11249799 -0.028380558 0.15491532 0.12713382 -0.1484845 -0.34831625
0.32274812 -0.22162487 -0.31022772 -0.11390697 -0.35465708 -0.43403456 0.14731564 0.12044385

model/Generator/body/res_block_sce17/dense2/MatMul f4 [16, 4]
00000000: 3dbb 8abe 0428 893d 8c04 c4bd dc3c 613c
00000010: ded9 1d3e 8a41 bdba 76f4 8ebe 3952 3b3e
00000020: fba1 63be 44cf d53e bfc4 613d 884d ae3e
00000030: eb26 94bd 86dd b83d 4b96 e5bd 99f3 103f
00000040: 6c50 39bd 542f d5be 242d 08be 5bbd 2e3f
00000050: bb8c 7c3e 45e3 be3d e467 3c3e 8451 9e3d
00000060: c32c 1f3e 7a4f 3bbe 5fd7 d23d 35ce ca3d
00000070: b542 9bbd 6514 1abe 412e 193d 911f 033f
00000080: cec6 abbe a7be 583d a021 70bd 8fad 92bd
00000090: 6812 4bbe 8d56 3fbe e462 cfbc a575 753e
000000a0: c9c7 f1bb 34d3 c73e 2697 b1be 4106 45bd
000000b0: 4bb2 973e 2b12 04bd 74e4 1e3f d8fc 8b3d
000000c0: 878a a1be 12bf ebbd 2d9e 27be 27d3 db3e
000000d0: 9342 0ebc a6d7 01bf 4b4e 16be 2696 903e
000000e0: 2a2d efbd ed25 5cbd 1b41 2cbe bf0d 3d3d
000000f0: 0c71 32bd cf24 86bd c9dc b73e 2c41 143f
-0.27095976 0.066970855 -0.0957118 0.01374742 0.15415141 -0.0014439088 -0.27920884 0.18293084
-0.2222976 0.41759694 0.055119272 0.34043527 -0.072339855 0.09026627 -0.11210307 0.566217
-0.045242712 -0.4163767 -0.1329847 0.68257684 0.2466306 0.09320692 0.18399006 0.077303916
0.15544419 -0.18292037 0.10294985 0.09902612 -0.07581083 -0.15046842 0.037397627 0.5122004
-0.33550113 0.052916195 -0.058625817 -0.0716201 -0.1983124 -0.1868536 -0.02531571 0.23970659
-0.0073785526 0.39028323 -0.3468563 -0.048101667 0.29628214 -0.03224389 0.6206734 0.068353355
-0.31551 -0.11511053 -0.16368933 0.42934534 -0.008682865 -0.5071968 -0.14678304 0.28239554
-0.11678536 -0.053747106 -0.16821711 0.046155687 -0.04356484 -0.065499894 0.35910633 0.57911944

model/Generator/body/res_block_sce18/dense1/MatMul f4 [4, 16]
00000000: 4608 40bd be85 603d 8314 c5bd 193a b0bd
00000010: 4af7 3ebe 29c9 94be 565a a8bc a087 793d
00000020: b9f2 5bbe d9af 293e fb15 1fbe 0b46 673e
00000030: 5aa5 4a3c 4fc2 533e 6652 a93d 9cb6 9b3d
00000040: a633 773d 9b0b d33d aa73 383e 9823 6e3b
00000050: 8fb0 8dbc e644 93bd b8e7 57bd 01b5 6cbe
00000060: 7217 c1be fa8b d3bd 90fe 773e 7ef5 29bd
00000070: 0875 0c3e 1929 ef3d 2438 91be f9ac 7e3a
00000080: f8bf 4a3d 5df9 19be 1d13 f73d a162 863b
00000090: cca4 54be 2de6 f1be 4961 88be 9de2 863e
000000a0: e088 6ebd acc1 b7be 685c 22be 9d4e f33d
000000b0: 258a 183e e5d7 193e 0391 923e a2a2 223e
000000c0: daf5 693d 1df2 653e 0a44 4c3c f0a9 8e3c
000000d0: 99f1 58bd 0984 f63e 6088 16be 9bb7 78be
000000e0: 867b 65be addd 093e b29c 653e 4843 8a3d
000000f0: 5214 23bd b05f 1a3e a3b0 3ebe 3516 adbc
-0.04688289 0.054815046 -0.09623053 -0.08604831 -0.18649021 -0.29059723 -0.020550888 0.060920358
-0.2147931 0.16570987 -0.15535729 0.22585313 0.012368524 0.20679592 0.082676694 0.07603189
0.06035199 0.10304948 0.18012872 0.0036337133 -0.017296104 -0.07190876 -0.05271122 -0.23115923
-0.377132 -0.10329433 0.24218202 -0.041493885 0.13716519 0.11677761 -0.28363144 0.0009715106
0.049499482 -0.15036531 0.120641924 0.004101113 -0.2076599 -0.47245923 -0.26636723 0.26344767
-0.058236003 -0.35889947 -0.15855563 0.11880229 0.14896448 0.15023763 0.2862626 0.15882352
0.057119228 0.2245564 0.012467394 0.017415017 -0.05296478 0.4814761 -0.1470046 -0.2428879
-0.22410402 0.13463469 0.22423056 0.06751114 -0.0398143 0.15075564 -0.18622069 -0.021128753
