enhancement/src/main/assets/Sensifai_SuperResolution_TFLite.tflite (tflite, 408548 bytes, 88 tensors)

Generator/body/res_block0/conv1/conv2d/Conv2D_bias f4 [16]
000000 d9 f5 07 3f d3 43 85 bd 94 67 04 3f 1e d5 b1 bd
       0.5310951 -0.06507077 0.5172055 -0.08683227
000010 dd dd 84 3e 8c 75 01 3e ee fe f3 bd 59 14 b0 be
       0.25950518 0.12642497 -0.11913858 -0.34390524
000020 e5 8f 4b 3f a7 02 33 3f 3d fa 52 3f 86 30 76 3e
       0.7951644 0.6992592 0.82413083 0.24041948
000030 2d e5 26 bd e2 20 d8 bd 05 a3 a2 bf 1c 16 a7 be
       -0.040745903 -0.10553147 -1.2706 -0.32634056

Generator/body/res_block0/conv1/conv2d/kernel/read f4 [16, 3, 3, 16]
000000 5c 1e 5b bc 22 39 fa 3c 58 08 65 bc 59 1d 5c 3d
       -0.013373937 0.030544821 -0.01397904 0.053738926
000010 76 dd 7f bc 33 6b e3 3d e9 3a b7 bb 8e b2 fa bc
       -0.015616765 0.11104431 -0.0055917394 -0.03060272
000020 ef f5 9f bc 2a 4e 9a 3d 56 4c 15 3c b5 16 42 3d
       -0.01952645 0.0753444 0.009112438 0.047384936
000030 36 91 9c bd 39 7d e3 3b 7c 9a db bd 16 6e fd bd
       -0.07644884 0.006942418 -0.10722825 -0.12374513
000040 b3 2d 84 3d b0 a3 f4 bb 0e 42 2c bd 63 c4 a8 bc
       0.06454029 -0.007465802 -0.042055182 -0.020601457
000050 3d 3e d9 3c 96 ea 7f bd 2f 90 21 be 1f 2a 25 3c
       0.026518935 -0.062479578 -0.15777658 0.010080843
000060 f1 18 ce 3c 7d 37 1b be f6 0d 0e 3d 31 9b 11 3b
       0.025158377 -0.15157886 0.034681283 0.0022217745
000070 5b 24 bf bc 66 96 6c bd 34 ed e6 bd 3a 33 c3 3d
       -0.023332765 -0.05776062 -0.11275712 0.09531255
000080 f3 1b 57 3d 3c 22 a1 3c a1 4d d8 bc a7 ec 33 bd
       0.05251689 0.019669645 -0.026404204 -0.04392686
000090 75 2d b5 bc 7b 47 50 bd 5d 59 0b bd 2f 7a b7 3c
       -0.022116402 -0.05084942 -0.03402077 0.022397129
0000a0 9f fb 0f be 3b 5c 7d bd b6 ac 2c bd 80 61 7f bd
       -0.1406083 -0.061855536 -0.042156897 -0.062348843
0000b0 08 2c 7d 3d f3 57 fb bc 6b 2a dc bc dc 0c 86 3d
       0.06180957 -0.030681586 -0.026875695 0.065454215
0000c0 93 dc 4e 3b 7c 74 80 3d ff b4 af bc 2c 5e 3c bc
       0.0031564578 0.06272218 -0.02144861 -0.011497062
0000d0 42 64 b3 bd c1 2d 2e 3d 1d 44 d6 bd 28 5e 48 be
       -0.08759357 0.042524103 -0.1046221 -0.19567168
0000e0 c8 7d d4 bc 61 1f 46 bd 45 94 eb 3c 6a 67 21 3c
       -0.025938883 -0.04836977 0.028757224 0.009851316
0000f0 f2 8e 39 bd c8 4e 31 bc 1b 72 0d be 1c ce cb bd
       -0.04530234 -0.010822006 -0.13813059 -0.099514216
000100 46 92 9a 3d 2d b8 2c be b7 c5 19 3e 76 55 f7 3d
       0.07547431 -0.16867132 0.15016828 0.12076847
000110 61 fc 8d 3d f2 b4 3b be 53 23 9c 3d 17 b9 9c 3e
       0.06932903 -0.18330744 0.07623925 0.30609962
000120 d1 38 c0 3d 4c 22 0c bd 79 dc 7f 3e 3a d5 c7 3d
       0.09385837 -0.034212396 0.24986447 0.097574666
000130 47 1f 04 3e 29 56 68 bc a5 0c 1b 3e e6 80 67 3e
       0.12902556 -0.014180698 0.15141542 0.22607765
000140 cd 3b d6 3c e0 13 e1 bd ef 72 db 3c cc 69 03 3d
       0.026151562 -0.10990119 0.026788203 0.032083318
000150 07 69 87 bd 56 d8 84 3d b4 a8 5f 3d 6e 63 28 bd
       -0.06611829 0.06486575 0.054604247 -0.04111045
000160 20 db 07 3e 1c 37 36 3d 4b 80 05 3e 50 6b f2 3d
       0.13267183 0.04448615 0.13037221 0.118368745
000170 d8 67 4e 3d d5 73 d8 3c 26 42 31 3d 79 cf 78 3d
       0.050392002 0.02642242 0.043275975 0.060744736
000180 5b eb 06 3d 1f a8 14 3d 3a dd ba bc da 22 11 3d
       0.032939296 0.036293145 -0.022810567 0.035433628
000190 02 fd e2 bd 2a ef 9b bc 7b 22 b5 bc 07 cc cf bd
       -0.11083414 -0.01903494 -0.022111168 -0.10146337
0001a0 46 a6 95 bc 5f 46 84 bc 97 a8 18 3d b1 c9 f5 bc
       -0.018267762 -0.016146837 0.037270155 -0.0300034
0001b0 01 69 f1 ba 9c 9d eb bc f0 ed 1b 3c 86 43 f1 3c
       -0.0018418134 -0.028761677 0.009517178 0.029451143
0001c0 ee f8 d0 3c d9 c4 fc 3d 74 e4 26 bd 9b 8f d4 bd
       0.025509324 0.12342233 -0.040745214 -0.10378953
0001d0 7e cd 07 3d 71 a4 b6 3d 1b 52 25 bd 47 e0 16 3d
       0.033154957 0.089180835 -0.040361505 0.03683498
0001e0 ea 1b b9 bc 8c 74 6a 3d 93 83 84 3d af 7a af bb
       -0.022596318 0.057240054 0.06470408 -0.005355201
0001f0 a2 5b 3b 3d bb fa 58 bd 82 7b 69 bc 92 ba b0 bd
       0.045741685 -0.05297349 -0.014250638 -0.086293355
000200 f3 f5 aa bd 0d 98 34 3d 1f 0f 03 bd d7 01 09 bc
       -0.08347692 0.04409032 -0.031996842 -0.008362255
000210 13 46 6e 3d 77 56 99 3d d6 a9 9d 3c ea 8e 34 bd
       0.058172297 0.07487195 0.019246023 -0.044081606
000220 d3 22 cc bc 4e bd e1 bc 57 34 33 bd d6 1a 67 bd
       -0.02491895 -0.027556088 -0.043751087 -0.056422077
000230 da e5 af bc 0c ff 93 bc 08 0d 47 3b d5 44 ce 3c
       -0.021471906 -0.018065952 0.0030372757 0.025179306
000240 42 67 a2 3b 0f 90 8d 3c 2c 74 af bc a6 dd b1 3c
       0.004956157 0.017280607 -0.0214177 0.021712136
000250 f4 a3 c1 bc 0b 40 e8 bd 79 23 b4 bd fb 7f 9a 3c
       -0.02363775 -0.1134034 -0.08795828 0.018859854
000260 db 2c 4f 3d 16 ab f8 3b 69 51 8b bd 55 66 4d 3d
       0.050579887 0.0075887544 -0.06802637 0.05014642
000270 cf 6e bc 3d 21 a0 d8 bc ef 03 fd bc a2 42 4c bd
       0.092008226 -0.026443543 -0.030885665 -0.049868234
000280 48 00 2e 3d fc 2f 7b 3d eb 35 89 bd 79 d2 0b 3d
       0.042480737 0.06132506 -0.06699737 0.03413627
000290 a9 d9 50 3d e0 ea 92 bd 27 88 37 be 9f a0 8a bb
       0.050988827 -0.07173705 -0.17923032 -0.0042305733
0002a0 e7 e1 d2 3d 49 df 18 3d b4 7e f6 3d c9 ee 74 bd
       0.10296994 0.037322316 0.120358855 -0.059798036
0002b0 6c e2 c5 3d 6c 20 85 3c a0 8b 17 3e 28 6f c7 bd
       0.09662327 0.016250812 0.14799356 -0.09737998
0002c0 59 5f ae bc 9d 60 62 bd ce e7 91 3c b1 14 6a 3c
       -0.0212857 -0.05526792 0.017810728 0.01428716
0002d0 a3 cd 4d bd 33 a2 27 3d 0e d6 ee 3c 7f d8 91 3c
       -0.05024494 0.04092617 0.029154804 0.017803429
0002e0 e5 50 8e 3d 82 8f c9 3c fb df b7 3d 97 5f 3a bd
       0.06949023 0.024604563 0.08978268 -0.045501318
0002f0 cc dd 18 bd 0a 8b f9 3a 6a 6f 9f 3c 38 47 fb 3c
       -0.037320897 0.0019038629 0.019462306 0.030673608
000300 01 c0 b1 bc 1a ee d0 bc 51 96 9c 3c 5f 5f e7 bc
       -0.021698 -0.02550416 0.019114645 -0.028243719
000310 0b 9f fc bd d9 7b b5 3d 9b c5 8b 3d 35 1f 22 3d
       -0.123350225 0.08861513 0.068247996 0.039580543
000320 60 f6 cb 3d 02 f1 ed bc e2 61 88 bd 9e d9 d1 3c
       0.09959102 -0.029045586 -0.06659295 0.025616463
000330 72 4a 1b be 74 69 fc 3c 78 c5 61 3c 53 32 dc 3b
       -0.15165117 0.030812003 0.01377999 0.0067198663
000340 57 14 98 be c4 ec 38 3e 7b 70 41 3e 99 56 27 3c
       -0.29703018 0.18059069 0.18890564 0.010213518
000350 2b 8d 78 be d2 60 d0 3d 80 86 85 3d d2 06 96 3d
       -0.24272601 0.10174717 0.065197945 0.073255196
000360 0b 43 8d be f6 99 68 3c c9 20 8c 3d e9 79 2d 3e
       -0.27590212 0.014196863 0.06842191 0.16941036
000370 82 ff a7 be 36 05 b3 bd 3c b2 f2 bc 4c 75 e0 3d
       -0.32812124 -0.08741228 -0.029626004 0.109598726
000380 b8 00 54 3e 03 09 09 3b f4 ca ba 3b 94 76 85 bd
       0.20703399 0.0020909912 0.0057004634 -0.065167576
000390 af a7 8a 3d c4 7c ce 3c 53 14 65 3b d5 fd c5 bc
       0.06770264 0.025205977 0.003495474 -0.024168888
0003a0 b5 c6 cc 3d a4 52 8d bd 23 02 26 be 77 5b c8 bd
       0.09998838 -0.06900528 -0.16211753 -0.097830705
0003b0 75 d5 19 3d 49 6f 87 bc 74 b1 5d bd 2d d0 68 bd
       0.037557084 -0.016532557 -0.05412431 -0.056839157
0003c0 27 73 10 bb 80 4b 66 3c 16 e2 b9 3a 89 96 6a 3d
       -0.0022041292 0.014056087 0.0014181759 0.057272468
0003d0 a5 c2 99 3d b6 0d 9c bc 86 99 d9 bc 44 af 18 3d
       0.075078286 -0.019049507 -0.026562463 0.03727652
0003e0 14 74 ec 3c 53 ec 22 3d 67 10 9b bc f4 48 1d bd
       0.028863944 0.039776158 -0.01892872 -0.03839965
0003f0 fc ae 1d bd ec c6 8c bd 4c cb bb 3c de 05 de bc
       -0.038496956 -0.06873879 0.022924088 -0.027102407

Generator/body/res_block0/conv2/conv2d/Conv2D_bias f4 [16]
000000 0f 4c e3 be ad 42 ac 3e 7d d5 d3 3f 39 fb 56 bf
       -0.44393966 0.3364462 1.6549526 -0.83977085
000010 db 4d 48 3f bb cd a3 3f 04 91 d2 3f e7 d1 49 bf
       0.782438 1.2797159 1.6450505 -0.7883591
000020 a4 c3 a7 be 89 fe a8 3f 80 fe b6 3f d6 99 bc bf
       -0.3276645 1.3202678 1.4296417 -1.4734447
000030 13 63 b8 3f ce 3c 9a 3f 2f cc c3 3f 40 43 a3 bf
       1.4405235 1.2049806 1.5296687 -1.2754898

Generator/body/res_block0/conv2/conv2d/kernel/read f4 [16, 3, 3, 16]
000000 f2 d1 a7 bd 1e 08 e0 3c 60 7c 82 bd 89 46 de 3c
       -0.08194341 0.02734762 -0.06371379 0.027133243
000010 f9 73 bb bc e0 6c 19 3e 93 31 52 bd 41 63 34 be
       -0.022882449 0.14982939 -0.05131681 -0.17615987
000020 23 6c 2c ba a7 08 ae 3d 08 52 d6 3c b1 9a a9 3b
       -0.0006577393 0.08497744 0.026162162 0.0051759114
000030 e5 81 39 bd 16 16 99 bb ee ff 3e bd ad d6 8b 3d
       -0.045289893 -0.0046718223 -0.046630792 0.068280555
000040 5c 9c 2b be c8 de f7 3d 96 97 58 3c d0 5a f8 bc
       -0.16758865 0.12103039 0.013219735 -0.03031674
000050 8d ef 51 3b d4 ac b2 bb 6d aa 64 3c dc e9 95 bd
       0.0032033653 -0.0054527316 0.013956648 -0.07319996
000060 93 ad dc bc 91 8d 3a 3d 37 91 a1 bd 0c 57 ae 3d
       -0.026938235 0.045545164 -0.07889026 0.085126966
000070 20 89 19 be b0 0e ce 3d 19 66 53 3d 63 e9 cd 3d
       -0.14993715 0.10061395 0.05161104 0.100542806
000080 7b 48 d3 bd 40 2b 49 3c 59 08 07 bd 1d 92 fe 3b
       -0.10316559 0.012278378 -0.032966945 0.007768883
000090 7c 85 55 3d 05 05 bb bb 1f 99 31 bd 54 bb 19 bc
       0.052129254 -0.0057073855 -0.04335892 -0.009383041
0000a0 7c c1 70 bd c1 7e eb bc 2b 4e 28 3d fd 12 40 3e
       -0.05877827 -0.028746964 0.04109017 0.18757243
0000b0 e1 bf b5 bd 22 aa 0b 3d 06 82 1d bd b6 32 29 3d
       -0.088744886 0.0340978 -0.03845408 0.041308127
0000c0 b5 1d e6 3d 3a d5 2a 3d ae 98 b7 bb 4b 50 8f 3c
       0.11236135 0.041707255 -0.0056029176 0.017494341
0000d0 11 c9 06 bd b5 57 35 bc bd 00 93 bd 3a 6e 4c be
       -0.032906596 -0.011068274 -0.07177875 -0.19963923
0000e0 c5 57 4d 3c 2f 56 21 bd 05 9e 85 3d 53 3d 07 be
       0.012533133 -0.03938883 0.065242805 -0.13206987
0000f0 e6 e9 f8 bd d0 c1 2b 3e 8d 80 c2 3c 7c 06 7b bc
       -0.121539876 0.16773152 0.023742938 -0.01532137
000100 67 3d 64 3e b3 3b df 3e 62 25 bd 3d df 4c 9b 3e
       0.22289048 0.43600234 0.09235646 0.30332085
000110 08 0b 05 3e 95 5a 28 bc a5 1f 4e 3c 7a 38 21 3e
       0.1299249 -0.010275503 0.012580787 0.157442
000120 6c fb 8c 3d 15 e9 cc 3d 0f 5e 6c 3e 7f d2 40 3e
       0.068838924 0.10005394 0.23082756 0.18830298
000130 5a 85 f3 3d 72 4d 6c be 42 9c c4 bd 95 1d 2c bd
       0.11890669 -0.23076418 -0.09600116 -0.0420204
000140 4a 3d 69 be 4d 9a 16 3e d2 e8 7e bd 0f 2d 96 bd
       -0.22777286 0.14707299 -0.062233754 -0.07332813
000150 0f 4c 54 3d 3d 2b 38 3d 54 2e 95 bd c3 54 a5 bd
       0.051830348 0.04496311 -0.07284227 -0.08072808
000160 7b 74 c8 bd 82 ea 01 bd c3 c7 6a bd 00 3e 7a bd
       -0.09787842 -0.031717785 -0.057319414 -0.061094284
000170 3a b1 1d be 2d 98 c2 3d 5f c5 88 bd 21 2d ff 3b
       -0.15399638 0.095016815 -0.066782705 0.007787362
000180 51 1a 1f 3d aa 5e 0e 3d 1b 8b 2f bd e1 61 47 bd
       0.038843457 0.034758247 -0.04285727 -0.04867733
000190 1b 56 0c 3d b5 59 c5 bd 74 cb d9 bc 9e 9b d4 bd
       0.034261804 -0.09636251 -0.026586272 -0.10381244
0001a0 e4 79 a2 3c af e0 44 bc 02 2b 58 3d 72 ea 50 3c
       0.019833513 -0.012016459 0.05277539 0.012751209
0001b0 56 d4 75 bc 12 af 13 be 88 76 c5 3c 16 a8 bf bc
       -0.015004238 -0.14422253 0.024104372 -0.02339558
0001c0 af e7 89 bd fc 17 4b bd 66 6d c9 bd 70 6b 2b be
       -0.06733643 -0.04958342 -0.09835319 -0.16740203
0001d0 6d c2 eb bd 23 ec 75 bd b6 87 eb bd b2 6b 00 3e
       -0.11511693 -0.06003965 -0.11500494 0.12541083
0001e0 f7 0a fe ba 50 ed 17 bd 0a 05 4b 3d 1c 20 81 3d
       -0.001938193 -0.037091553 0.049565352 0.063049525
0001f0 42 65 d8 bd 33 7f 42 3e aa b9 31 bc 67 e7 a2 3d
       -0.105661884 0.18993835 -0.010847488 0.07954293
000200 e5 d3 03 be c4 b2 99 3b f6 21 bb bd 50 9e 1f bd
       -0.128738 0.0046905 -0.09137337 -0.038969338
000210 9c ab 83 3d 0c 86 0f bc 84 5c 3e bd c0 ca 96 3d
       0.06429216 -0.008759987 -0.04647495 0.0736289
000220 dd 02 bb bc 3c 43 15 bc 8d a7 5a 3d 3b f2 da 3d
       -0.022828514 -0.009110268 0.053382445 0.10690733
000230 4e b4 ff bd 60 8e 32 bd c2 67 db bb 78 f9 05 bd
       -0.12485562 -0.04359281 -0.0066957185 -0.032708615
000240 44 61 b2 bc 82 52 5b bd aa 18 e2 bb 20 a6 bb bc
       -0.021774895 -0.053545482 -0.006899913 -0.022906363
000250 19 03 e0 3c c3 69 9e bc 4e 52 13 3d 92 f7 ba 3c
       0.027345227 -0.01933754 0.035967164 0.022823129
000260 ca 44 47 3d ee b8 aa 3a 49 97 59 bd 74 8a e1 b9
       0.048649587 0.0013025084 -0.053122792 -0.000430185
000270 0d f7 03 3d af 4e e6 3c 5c 2c cd bc 5d 23 d3 3b
       0.032218028 0.028113691 -0.025045566 0.0064434246
000280 31 68 fe 3d 03 f5 7e 3d 55 18 dd 3d fb 89 11 bd
       0.12422217 0.06224538 0.107956566 -0.03553198
000290 bc 9b 02 3d ab 84 b8 3d 3d 68 0e 3d 0a e0 a3 bd
       0.0318868 0.090096794 0.034767378 -0.080017164
0002a0 d3 75 04 be 50 51 11 bd e5 ee 3d bb 7b f8 00 3d
       -0.12935571 -0.035477936 -0.0028981504 0.03148697
0002b0 3b 10 5b 3d 53 fb c4 bc ca e4 d1 bc c0 65 97 bc
       0.053482275 -0.024045622 -0.02562179 -0.018481135
0002c0 87 de 5f bd 1a 3e 1a bd 02 fa 73 bd 32 06 c8 bc
       -0.054655578 -0.03765688 -0.059564598 -0.024417017
0002d0 38 ea 03 bc 22 d2 09 bd ee 30 10 3d 9a 8f 4e bc
       -0.008051448 -0.033647664 0.035202913 -0.0126074795
0002e0 91 80 8b 3d ba d3 7a 3d f0 f7 26 3d 9f 6e 22 3d
       0.068116315 0.061237074 0.040763795 0.039656278
0002f0 5c 42 7e bb bf a1 ba 3c 6e 5c 9c ba fa 08 5e 3b
       -0.0038796877 0.022782205 -0.0011929402 0.0033879862
000300 a9 15 7c 3d c5 67 6c bd a5 51 71 3c 50 b1 f3 bd
       0.061544094 -0.05771615 0.014728938 -0.11899054
000310 9a 20 88 bd ea c7 8c 3d ce 15 a2 bc 07 a7 a2 3d
       -0.06646843 0.06874068 -0.019785788 0.07942014
000320 6e c0 8a 3c bb 39 a8 bd 95 e8 d9 bd f1 f0 9f bd
       0.01693746 -0.08214136 -0.106400646 -0.07809628
000330 2b 35 18 3c 45 e7 7a 3c df 2b 89 bd b7 33 d9 3d
       0.00929002 0.015313928 -0.06697821 0.10605567
000340 be 43 83 3e e8 94 2e 3e 68 2f e2 bc 6a e5 27 3e
       0.2563762 0.1704899 -0.027610496 0.16396108
000350 30 1b 92 3c ae ec e3 3d 95 73 07 bc 27 29 b4 3d
       0.01783523 0.111291274 -0.008267303 0.08796912
000360 1f b9 46 3d 14 53 e9 3d 86 8d 47 3e 44 dc c3 bd
       0.04851639 0.11392799 0.1948758 -0.09563497
000370 fc d7 d4 3d db 37 7d 3c 18 47 dc 3c 88 e9 05 3c
       0.10392758 0.0154552115 0.026889369 0.008173354
000380 d0 4f a6 bd 46 ee 4f 3d 44 d0 2a be 98 2f a0 3c
       -0.08120692 0.050764345 -0.1668101 0.019553944
000390 4c 62 5f bc 16 bb ca bd 22 1b 54 3c 23 62 c2 bb
       -0.013634276 -0.09898965 0.012945922 -0.005932109
0003a0 ba fe 82 3e 7d 8f b3 3d a1 9a 66 3e 73 d7 24 bd
       0.25584966 0.087676026 0.22519924 -0.04024453
0003b0 b3 74 f1 bc 97 6a ab 3d 2b c4 65 3d 55 53 1b 3d
       -0.029474592 0.0836994 0.056095283 0.03792127
0003c0 84 94 f4 bc b4 f1 45 bd c1 a3 26 3c 42 1d 87 bd
       -0.029855974 -0.04832621 0.010170878 -0.06597377
0003d0 38 57 2e 3d b8 6a 97 3c 1a 4a c4 3a f5 13 2a 3d
       0.042563647 0.018483505 0.0014975697 0.04152294
0003e0 56 f1 79 bc c3 f2 95 3c ca 6c 00 bd 7b f3 4c bd
       -0.015255293 0.018304234 -0.03135375 -0.05003689
0003f0 3b 38 5f 3d 22 13 07 3b 8a 1e 1c 3c f6 8f 9a 3d
       0.054496985 0.002061077 0.009528765 0.075469896

Generator/body/res_block1/conv1/conv2d/Conv2D_bias f4 [16]
000000 1e dc a2 3f 4d c9 08 bf 70 58 08 be 4e d3 50 3f
       1.2723424 -0.5343216 -0.13314986 0.81572425
000010 4e 52 92 be 4c 99 48 3f d3 b8 76 3f e2 83 82 be
       -0.28578418 0.7835891 0.9637577 -0.25491244
000020 80 86 4d 3f d7 c9 57 bf 1f 30 5e 3e 8a e2 be bd
       0.80283356 -0.8429236 0.21698044 -0.09320553
000030 01 7c 27 3f 4d b3 bf 3f 6e db 85 be 56 16 81 be
       0.6542359 1.4976593 -0.26143974 -0.25212353

Generator/body/res_block1/conv1/conv2d/kernel/read f4 [16, 3, 3, 16]
000000 d5 fc 75 3c c2 be 1e 3d 4c 26 11 3d a8 d1 4d bd
       0.015013893 0.03875614 0.035436913 -0.050248772
000010 e4 93 ef bc be 1b 62 bc 7c a5 a3 3c 2e d6 48 3d
       -0.029245324 -0.01380056 0.01997637 0.049032383
000020 0c a1 89 bc 53 dd 10 3c b1 ba 38 bd 9c 19 fa 3b
       -0.016800426 0.00884183 -0.045099918 0.0076324474
000030 2a 47 50 3d 80 2e 34 3c 9b 38 51 bd 2a 04 6a bc
       0.050849117 0.010997415 -0.051079374 -0.014283219
000040 ca 93 09 bd 68 de 7e bc f0 b5 0a bc c3 65 dc bc
       -0.03358821 -0.0155559555 -0.008466229 -0.026903993
000050 26 28 0d 3c 91 67 e4 3c 41 ec e0 3c ba 91 45 3d
       0.008615529 0.027881416 0.027456405 0.04823468
000060 3f fb 58 bc 8b ec 05 bd 01 15 a2 3d f6 70 4f bd
       -0.0132434955 -0.032696288 0.079141624 -0.050644837
000070 9c 84 84 bc df 38 49 bd 7b 3c a1 bc 53 2b 9d bd
       -0.016176514 -0.049126502 -0.01968216 -0.07674279
000080 76 68 fd 38 04 1f d6 bc 54 e4 68 3c 9c de 0e bc
       0.000120834375 -0.026137836 0.014214594 -0.008720066
000090 00 4c f4 bb 0c 1d f9 3c 87 ae 27 3c b3 b3 22 3c
       -0.007455349 0.030409358 0.010234482 0.009930539
0000a0 4a 0a 16 3d 1c cf 5e 3b b1 31 d5 bc 54 40 d4 bc
       0.036630906 0.0033997959 -0.026024671 -0.02590958
0000b0 9a 9c 10 bc 44 e8 0e 3d 21 b4 f2 3d c6 39 87 bc
       -0.008826399 0.034889475 0.11850763 -0.01650704
0000c0 5c 0e 9d bb 26 1d 16 3c b2 0e 16 bd 90 89 15 3c
       -0.0047929715 0.009162223 -0.03663511 0.009127036
0000d0 7c 40 c1 bc 94 d5 cd bc 2b d7 57 3d ff dd b0 bc
       -0.023590319 -0.025126256 0.052695435 -0.021590231
0000e0 29 1e bd bb 30 e4 24 3d 09 38 94 bc a4 74 47 3c
       -0.0057714176 0.04025668 -0.018093126 0.012173805
0000f0 86 fc 7b 3c 4b ff 72 bd af df 81 bc 56 32 a6 bd
       0.0153800305 -0.059325498 -0.015853731 -0.081150696
000100 10 89 9a 3c ee e3 92 bd 95 82 18 bc e8 da 12 bd
       0.018864185 -0.071723804 -0.009308477 -0.035853297
000110 6d 93 27 bd 97 5d aa bd 7d a2 dc bb ad ef 71 bd
       -0.04091208 -0.08318632 -0.0067332373 -0.059066463
000120 6e 1c 60 bd ee 46 01 be 6b 85 a0 3d 6f 93 fb bd
       -0.054714613 -0.12624714 0.078379475 -0.1228398
000130 e5 66 6e 3c ce 0b 58 bd b9 ae 81 bd f6 25 f4 bd
       0.014550899 -0.052745633 -0.06332154 -0.11921303
000140 42 a9 fa 3c 0a c0 41 3b 76 f6 aa bd 62 52 f9 3d
       0.030598287 0.0029563927 -0.0834779 0.121739164
000150 1f 99 f8 3c f8 51 44 3e 46 2d ea 3c d8 f4 97 3d
       0.030346451 0.19171894 0.028586041 0.07419747
000160 36 8d 32 3c 37 94 8e 3d d2 ce 0a bd 3a 5c ab 3d
       0.010897925 0.069618635 -0.033888645 0.083672
000170 4b f4 15 3d 9f cd 2b 3e 4a 2a 16 3e 1b d7 ea 3d
       0.03660993 0.16777657 0.1466457 0.11466809
000180 b5 f6 85 3c 51 60 8b bc a8 01 dd 3c 2b 4c 28 3d
       0.01635299 -0.0170137 0.026978329 0.041088264
000190 49 8f 01 3d 30 35 ad 3c ce a8 a4 bc b1 3f 5c 3a
       0.031630788 0.021143526 -0.020100024 0.0008401825
0001a0 82 c6 69 bc 3d 56 a6 bc 8d b4 12 bd 25 ab f1 3b
       -0.014268519 -0.020304793 -0.035816718 0.0073751383
0001b0 11 2e 5e 3a fd 8b 0d bc 41 e6 00 bd 31 ec 9d bc
       0.00084754924 -0.008639333 -0.031469587 -0.019277664
0001c0 33 fc c3 3c 7a ae 73 bd 4c 2d 11 3c 97 e2 3b bd
       0.023923969 -0.059492566 0.008860897 -0.04587039
0001d0 12 21 3b bb 8a 1d 78 3c 1d 53 9f 3c 81 52 56 b9
       -0.0028553647 0.015143761 0.019448811 -0.00020439365
0001e0 3b fc df ba 00 f4 75 3d e8 0d 05 3d 74 49 30 ba
       -0.001708872 0.06004715 0.032483965 -0.00067248126
0001f0 54 dd 2b 3d 21 5b 86 3d 03 d5 e6 3d 53 b0 7e bd
       0.04195912 0.0656035 0.112710975 -0.062179875
000200 7c 67 a9 bd d4 21 2c 3b 77 f5 87 3d 8a 9b 81 3c
       -0.08271691 0.002626528 0.066386156 0.015821237
000210 f3 6b 23 3d 8c eb 58 3d ca 36 e2 3d 35 91 2a bd
       0.03989787 0.05295901 0.110456064 -0.041642386
000220 c8 ea e2 bc 2d ff c6 bd 21 fc cf bc bd bb a4 3c
       -0.027699843 -0.0971664 -0.02538878 0.020109052
000230 58 c8 6c 3d f8 26 62 3c 72 34 4e 3d af 1f 02 bd
       0.05780825 0.013803236 0.050342984 -0.031768497
000240 2c 03 2f 3c 50 6d 5a 3d 46 be 03 3d 73 70 a8 3c
       0.010681909 0.053326905 0.03216388 0.020561432
000250 9c d9 12 bd cc 61 7f 3c 17 a4 a1 ba b3 2d e3 bc
       -0.03585206 0.015587281 -0.0012332228 -0.027731752
000260 48 e1 bd 3c ad a7 26 bd f1 84 aa bc a1 4c ac 3b
       0.023178712 -0.04068725 -0.020815345 0.0052581583
000270 44 65 95 bd 0a bf 10 bd f0 b1 d7 3c 66 13 60 3d
       -0.072947055 -0.03533844 0.026329964 0.054706
000280 a6 32 2a 3d 7f 88 37 3c a3 96 5e bd e2 fd dd bc
       0.04155221 0.011201977 -0.054342877 -0.0270986
000290 d2 38 6a bd a1 a0 72 bc 82 f7 13 3d f6 a4 ab bc
       -0.057183094 -0.014808805 0.036124714 -0.020952683
0002a0 c8 47 1f bd 7a a7 1e bc fb 49 09 bd 17 e2 df 3c
       -0.038886815 -0.009683484 -0.03351782 0.027329488
0002b0 46 6a 0e 3d 11 46 81 3d 7c f0 d6 3d 0b bb 42 bd
       0.03476932 0.06312192 0.104950875 -0.04754166
0002c0 f7 1a af 3c af bf 52 bc 36 7b c2 3c 69 43 a3 3a
       0.021375163 -0.012863084 0.023740392 0.0012456003
0002d0 19 30 7c 3d 8f 34 e0 3b 6c fa c9 bc 9b ab d2 bc
       0.061569307 0.006842203 -0.024655543 -0.025716593
0002e0 f3 00 da bd 5b 23 02 bd 87 e3 ad 3d e4 c4 87 3d
       -0.10644712 -0.031772 0.08490663 0.06629351
0002f0 02 ac d0 bc 3c f3 f6 3c 69 40 98 ba 0c c7 45 3d
       -0.025472645 0.03014528 -0.0011615875 0.04828553
000300 c3 56 bd bd d5 a5 71 3d e5 5c a6 bc f7 dc ba bb
       -0.09245064 0.05899604 -0.020307967 -0.0057026106
000310 5d ae ee 3c 1b 46 da bc 71 58 55 bc 72 00 1f 3d
       0.029135877 -0.026644757 -0.013021574 0.038818784
000320 89 e2 db 3c 4c d0 da 3c 4e a5 33 3d 30 f5 96 3d
       0.026841419 0.026710652 0.04385882 0.073709846
000330 80 51 a6 3d 97 9c 94 bd d6 d7 8c 3d 33 21 8d 3d
       0.08121014 -0.0725643 0.06877105 0.06891098
000340 3e cd 89 3e d2 eb 01 bd fa 3f 89 be 62 08 4e be
       0.269144 -0.031719036 -0.26806623 -0.20120385
000350 fb 49 87 3e a4 8e 94 3c fb 41 5a be 31 be 53 be
       0.2642363 0.018134423 -0.21314232 -0.20678021
000360 17 4f 45 3e 2a e6 6a 3c 5a f9 e6 bd 7d 88 18 be
       0.19268452 0.014337102 -0.11278029 -0.14895816
000370 9e 21 69 3e bc 23 96 bd fc a1 35 bd d1 74 34 be
       0.2276673 -0.073310345 -0.044343933 -0.17622687
000380 42 5e 12 bd 4e 8e fa 3b 8a 46 01 bb 0c 85 ac bd
       -0.035734423 0.0076463586 -0.0019725882 -0.08423814
000390 e4 cc 61 bc 91 3d da 3c 03 ef 16 3d 21 0d a3 3d
       -0.01378176 0.026640685 0.036849033 0.079614885
0003a0 c6 92 1d 3c 81 eb 02 3d f8 1c c4 bc 33 b7 58 3c
       0.009617513 0.031962875 -0.023939595 0.013227272
0003b0 94 ef 02 3e d8 4e bb ba 26 cd 19 3c 37 0b 3a bd
       0.12786704 -0.0014290465 0.00938729 -0.04542085
0003c0 97 4e 06 3c d0 4d ae 3d 37 f3 cb bd 91 3e da bd
       0.008197448 0.08510935 -0.09958499 -0.10656465
0003d0 30 fb 86 bd 7f 8b 5b 3d 79 1f 9c 3c a7 27 ac bc
       -0.06590879 0.05359983 0.019057976 -0.021015001
0003e0 2e a1 e7 bb 45 c6 9d bd 66 ca 5e bd 4d 25 05 3c
       -0.0070687747 -0.077038325 -0.05439224 0.008126569
0003f0 25 ed 39 bd 83 21 ab bc cb b7 37 3d 93 66 fc bc
       -0.045392174 -0.020890003 0.044853013 -0.03081063

Generator/body/res_block1/conv2/conv2d/Conv2D_bias f4 [16]
000000 03 17 49 bf d5 d4 9b 3e ce a8 c8 3f 1c f2 7d bf
       -0.7855074 0.30435815 1.5676515 -0.99197555
000010 75 01 87 3e 92 40 8c 3f 44 d8 bb 3f bb 9f 57 be
       0.263683 1.0957205 1.4675374 -0.21057026
000020 c6 c9 95 3e e5 f9 8b 3f cd d9 a5 3f 7f fe 9d bf
       0.29255503 1.0935637 1.2957093 -1.2343291
000030 d1 62 bd 3f 20 7c 80 3f 85 6f c4 3f 1c 3f 83 bf
       1.4795781 1.003788 1.5346533 -1.0253634

Generator/body/res_block1/conv2/conv2d/kernel/read f4 [16, 3, 3, 16]
000000 f2 f0 df 3a 54 c0 98 bd 8b f2 73 bd 7f 79 8f 3b
       0.0017085357 -0.07458559 -0.05955748 0.004378497
000010 ee d2 b4 3d a0 cf 42 3b d3 c8 67 3d 37 68 21 bd
       0.08829294 0.0029725805 0.056588005 -0.039406028
000020 98 72 92 bd bf c7 03 3b 8a 02 64 bd e5 2b ca 3d
       -0.07150763 0.0020108072 -0.055666484 0.098716535
000030 4c 9d 8c bd 00 1f 7d 3c 65 96 01 bd 99 da 22 be
       -0.068659395 0.0154492855 -0.031637568 -0.15903701
000040 1a 1f 36 3c 8f 28 54 bd d1 8f 8e bd 63 fd d6 bd
       0.011115814 -0.051796492 -0.069610246 -0.104975484
000050 23 c8 a3 3d c3 dc 4a 3c 3d eb 83 3b 1d da 99 bd
       0.079971574 0.012381735 0.0040258453 -0.07512305
000060 cb 98 07 3c 86 61 9a bc e5 49 92 bb 0f d0 6b bd
       0.008276175 -0.01884533 -0.0044643753 -0.057571467
000070 71 3e da bc 27 f9 d3 3d ba f0 15 3d 8e 56 f4 bd
       -0.026641103 0.103502564 0.036606528 -0.119305715
000080 db 1f 21 3d c3 92 b4 bc cf 5b 47 3d 6d a3 f4 3c
       0.03933702 -0.022042638 0.04867154 0.029863084
000090 5f 29 d7 bd f8 fc cb ba bd 94 a8 bc 74 f4 59 bb
       -0.10505938 -0.0015563061 -0.020578736 -0.0033257278
0000a0 27 04 aa 3b 19 21 66 3d 0f 92 3b 3a 9b 97 c3 3d
       0.0051884833 0.056183908 0.00071552483 0.09550401
0000b0 7f f3 0c bd 76 be a4 bd a8 9a 01 bc 40 3d 93 3d
       -0.034411903 -0.0804414 -0.007910408 0.07189417
0000c0 0f a3 a9 bd fa 0f ec bc 01 b7 a3 bd e8 0f 10 3d
       -0.08283054 -0.028816212 -0.079938896 0.03517142
0000d0 3a 93 ac 3d a7 be 10 3e 51 b5 86 3d 26 97 f3 bc
       0.08426519 0.14135228 0.06577552 -0.02973516
0000e0 79 e4 7e bd 5f 24 60 bc f7 72 aa 3b 22 f9 76 3c
       -0.062229607 -0.013680547 0.005201693 0.015074046
0000f0 f2 ef 4f 3c a8 97 38 3e a1 64 2b bd 09 01 b6 3d
       0.012691485 0.18026602 -0.041844014 0.08886916
000100 3c 3c 5c be 7c 20 0e ba e8 43 db 3c 97 d1 e2 3b
       -0.21507353 -0.00054217107 0.026765779 0.0069219577
000110 81 dc 22 bd 25 63 cb 3d 32 b5 64 3d a6 09 9d 3e
       -0.03976107 0.0993102 0.055836864 0.30671424
000120 0b 99 d0 ba 03 52 eb 3c b9 78 0e be 5e 7d 37 be
       -0.0015914751 0.02872563 -0.1391324 -0.17918918
000130 14 b9 ac 3d 3f 21 32 be 34 85 07 3c 58 10 81 be
       0.08433738 -0.17395495 0.008271504 -0.25207782
000140 63 48 77 bb 05 ce 06 be 98 26 37 3d f3 23 84 3d
       -0.0037732355 -0.13164528 0.04471454 0.06452169
000150 76 d0 a4 bd d1 83 05 3d 1e 88 20 3d 61 1c 97 3d
       -0.08047573 0.032596413 0.03919231 0.0737846
000160 d5 1d 9f 3d 35 5c 83 bd a6 50 f4 bc 7f ed 0f 3e
       0.07769362 -0.064140715 -0.029823612 0.14055441
000170 d4 f9 d1 bd f2 f1 68 3d f7 86 f6 bd 40 38 72 3d
       -0.10252729 0.056871362 -0.12037461 0.059135675
000180 d9 e8 23 3d e9 dd 56 bd 4a f4 eb bd ed aa b6 3b
       0.040016983 -0.052457724 -0.11521204 0.005574575
000190 d8 cd eb bc dc a9 4a bb 75 48 2c bd 4f 52 7b ba
       -0.028784677 -0.0030923998 -0.042061288 -0.0009587155
0001a0 b4 47 c0 3d ad 55 12 bd ab 20 52 3c 7e 7a 9d 3d
       0.09388676 -0.035726238 0.012825171 0.07689379
0001b0 86 7c 38 3d aa 8e 0d 3d 15 59 b2 3a c8 6c 18 be
       0.04504063 0.034559883 0.0013606871 -0.14885247
0001c0 b9 94 b7 bc fc 21 f6 3c 09 a5 db bd 70 af 1d be
       -0.022409784 0.030045502 -0.10724837 -0.15398955
0001d0 d6 0d 79 bd 24 40 33 3d e9 8d f6 3c 4c ae 01 3e
       -0.06080421 0.04376234 0.030096965 0.12664145
0001e0 81 f2 50 bd 9a 26 e6 bb 98 34 7e bd 8a 2a c3 bc
       -0.05101252 -0.0070236446 -0.062061876 -0.023823995
0001f0 2a 51 86 bd 04 31 64 bc 76 f5 d6 bc 65 d2 d9 ba
       -0.065584496 -0.013927702 -0.026240092 -0.0016618489
000200 db a4 d7 3c c1 99 80 bc 6e ad 0c bc c1 d3 89 3d
       0.026323726 -0.015698316 -0.008586271 0.06729842
000210 fd d8 6b bd 1d 57 7d 3d 81 d1 a6 bd cb 3c 5a 3c
       -0.057579983 0.061850656 -0.081454284 0.013320158
000220 7e 2e c8 3b a5 94 77 3d 8b d9 cd bc 3b 29 01 3d
       0.006109058 0.060444493 -0.025128147 0.03153346
000230 fc b8 49 bd e1 68 91 bd 8b 4a 81 bc 72 62 57 3a
       -0.04924868 -0.07100082 -0.015782615 0.00082162686
000240 6d 95 d3 3c 01 96 f0 bc ea 75 c3 3c 54 42 5b bb
       0.025828088 -0.029368402 0.023859937 -0.0033456283
000250 fb 04 84 bd f1 e0 d3 bb 93 9b 95 bc 53 cb d5 3b
       -0.064462624 -0.006466024 -0.01826266 0.0065244823
000260 5c 87 04 3d c5 1a cd bc 15 ae 94 3b 81 d1 46 bb
       0.03235565 -0.025037179 0.0045373538 -0.0030337276
000270 91 97 30 3d fb 5e 94 bc 24 86 9d 3d 66 a6 71 3d
       0.043113295 -0.018111696 0.07691601 0.05899658
000280 5f d8 f1 3b 51 8b 5f bd d1 f8 61 3c 2c 36 09 be
       0.00738053 -0.05457622 0.013792233 -0.13399571
000290 29 68 96 3d 12 c4 04 bd 6e af 31 3d 7b eb 65 3c
       0.07344086 -0.03241355 0.043380193 0.014033194
0002a0 c4 57 78 3d ae 51 18 bd 7a de 4c 3c d7 6f 54 bd
       0.060630575 -0.03718727 0.012504214 -0.05186447
0002b0 e9 08 ba bd 6c 67 a8 bc de c2 15 bc ce 40 f1 3b
       -0.09083731 -0.020557128 -0.009140698 0.0073624616
0002c0 2e 74 30 3d 0a 49 57 bc a5 a8 5f bc 33 72 8b bd
       0.043079548 -0.013139972 -0.013651048 -0.06808891
0002d0 bd d6 27 3c 84 b9 d3 ba 6d 4a 2c 3d 45 45 c4 bc
       0.010244069 -0.001615331 0.042063165 -0.023958812
0002e0 74 e4 bd bc 09 ae 82 bd d8 84 8c 3d a2 79 59 3d
       -0.023180224 -0.06380851 0.068612754 0.053094514
0002f0 61 f5 9a bd 29 82 22 3d ce 44 07 ba 92 a9 4f 3c
       -0.075663336 0.03967491 -0.0005160094 0.012674706
000300 c7 b2 ea bd 6f 7f 0f 3d c5 6c 54 bd a3 c3 9e 3d
       -0.1145988 0.03503364 -0.051861543 0.077521585
000310 6c 17 1b bd 81 87 2f 3b 06 82 ee bc d3 a7 dc 3b
       -0.037864134 0.0026783647 -0.029114734 0.0067338734
000320 91 04 58 3d e3 02 2d bc f2 b1 98 bd e5 c9 5b bc
       0.05273873 -0.01055977 -0.074558154 -0.013414835
000330 dc fc 43 3d 09 d0 4d 3d 72 6d 7a 3d e6 dc 95 3d
       0.047848567 0.050247226 0.06113953 0.07317524
000340 5e b8 d5 bd a5 b5 d1 3c 2e c9 43 bc e7 55 9c bd
       -0.10435556 0.02559931 -0.01194982 -0.07633572
000350 fe d3 1b 3d d5 d0 8e bc f9 f2 26 3e 16 41 fb 3d
       0.03804397 -0.017433563 0.16303624 0.122682735
000360 cc 66 72 3d d1 42 19 be 9a 5c 05 be c4 b7 a3 3d
       0.059180066 -0.14966895 -0.13023606 0.07994035
000370 10 b0 c4 bc 64 4f 4d be ff 62 e7 bd 74 1b 5c bd
       -0.024009734 -0.20049816 -0.11298179 -0.05373712
000380 16 c9 e1 3c 1a d0 a7 b9 2a aa d2 bd 9e 1e d8 3c
       0.027561706 -0.0003200777 -0.102863625 0.026381787
000390 be 1a a7 3c e5 88 bc bc e4 39 3c 3e 39 e7 66 bb
       0.020398494 -0.023014495 0.18381459 -0.0035233034
0003a0 16 c4 9c 3d 10 15 c9 ba c9 8e 32 bd ac 1a b2 3d
       0.07654588 -0.001534136 -0.0435932 0.086964935
0003b0 d7 1e da bd c0 0a 95 3d 0e 3f 2d bd dc b0 02 3d
       -0.106504135 0.07277441 -0.04229646 0.031906947
0003c0 d0 2c 02 3d 36 a3 65 bc da 29 3a bd c1 fa 09 3d
       0.031781018 -0.014015963 -0.04545007 0.033686403
0003d0 10 1a 1c 3c 9f be 2a bc 17 18 e2 3c bc f5 bf bc
       0.009527698 -0.010421424 0.027599378 -0.023432605
0003e0 dc 06 3e bb e8 ea bd bd 34 2e 3e bd 28 4c 60 3c
       -0.0028995788 -0.092733204 -0.04643078 0.013690032
0003f0 25 35 46 3d cc 2b 5e bd 50 4a 8e 3d c8 70 33 bc
       0.048390526 -0.054240987 0.06947768 -0.010952182

Generator/body/res_block10/conv1/conv2d/Conv2D_bias f4 [16]
000000 de b0 5f 3e 16 2a d8 bc 0b 53 49 3c 6f 96 07 3e
       0.21844813 -0.026387256 0.012287865 0.1324098
000010 24 b9 fa 3d 3d 7d db 3d 66 80 60 3d a7 23 08 3d
       0.12242344 0.10717247 0.05480995 0.033237126
000020 ff ce ac be 2e 64 21 3e 34 c2 50 3e 81 a1 bb bd
       -0.33751675 0.15760872 0.20386583 -0.09161664
000030 4a c7 aa be eb 52 ff 3d a3 84 c1 be 76 b4 94 bd
       -0.3335517 0.12466987 -0.37796506 -0.07260983

Generator/body/res_block10/conv1/conv2d/kernel/read f4 [16, 3, 3, 16]
000000 76 42 5a 3d 45 a2 dc bc 36 a8 50 bd e5 b2 ab 3d
       0.05328604 -0.026932845 -0.05094167 0.08383731
000010 9f cb e8 3b aa f4 4b 3d eb 29 20 be 7f 99 8a bc
       0.0071043517 0.049793877 -0.1564099 -0.016918896
000020 f5 b3 9f 3b 13 46 09 be 38 24 72 3d c9 04 bf 3d
       0.0048737475 -0.13405637 0.059116572 0.093270846
000030 92 c1 8a bd 8e bf 68 bd 2e ec 88 bd 70 a7 2d 3e
       -0.06775202 -0.056823306 -0.06685673 0.16958404
000040 d6 66 ef 3c 59 34 fc 3d fe 26 b6 3d 8d 5a 2e 3d
       0.02922384 0.12314672 0.08894156 0.042566825
000050 a3 fe e7 3c 6a 2d 24 3d bb 57 f7 bd cf 12 8c bd
       0.028319662 0.040082373 -0.1207728 -0.06839525
000060 1c bb 00 be dc 8f 17 3b ba 1b c7 bd ff 8f a0 3d
       -0.12571377 0.0023126518 -0.09722085 0.07839965
000070 27 89 52 3b 15 30 87 3c 58 a7 a1 3c 75 2e d2 bd
       0.0032125206 0.01650242 0.019733116 -0.10262767
000080 52 6a 88 bd da fd af bc 1f 14 0c bd 25 3e c4 bc
       -0.06660904 -0.02148335 -0.034198876 -0.023955414
000090 4f 4a 4f bd 1f 29 4b bd 78 4b 9c bd 8c e3 47 3c
       -0.050607976 -0.049599763 -0.07631582 0.0122002475
0000a0 30 3e 37 39 f3 73 e3 bc 86 34 1a 3d 38 a2 3c bd
       0.00017475407 -0.02776525 0.037647747 -0.04605314
0000b0 b0 d2 14 3c 6d f4 ad bc 6c 48 9b 3d e8 95 5f bd
       0.009083435 -0.021234715 0.07582173 -0.05458632
0000c0 12 a0 57 bc 83 dc 95 bd 42 e0 ed 3c ac 89 42 3d
       -0.013160722 -0.0731745 0.029037599 0.047494575
0000d0 8e b6 6b 3b 4b 6e 60 bd ce 3d ec bc 1f 25 12 bd
       0.0035966965 -0.054792684 -0.028838065 -0.035679933
0000e0 68 01 87 bd 6e 7c 08 bb d3 f4 f6 bc bf aa d7 ba
       -0.06592065 -0.002082612 -0.030146038 -0.0016454085
0000f0 4b a2 bf bc fe f5 5e bb 7c f1 01 be 6e 96 02 3c
       -0.023392817 -0.0034021134 -0.12689775 0.007970436
000100 67 a7 62 bd 89 fc 95 3d 8b cb 02 be 71 c8 5e 3d
       -0.05533543 0.07323558 -0.12772958 0.054390375
000110 3c d6 36 3d 46 b7 8b 3d e4 5a 07 be 3e 5e 7b bd
       0.044637904 0.06822066 -0.13218266 -0.061369173
000120 cf 3b 84 bd ee 33 2a 3b 16 13 89 3d b8 6e 12 3d
       -0.0645672 0.0025970894 0.066930935 0.03575012
000130 f6 28 37 3d ce 66 82 3c f1 2e 88 bb 8d f8 bf bd
       0.044716798 0.015918162 -0.0041559865 -0.09373579
000140 12 5a 1d 3c a6 39 b0 bd 61 c4 02 3e a3 1a 60 3c
       0.009603994 -0.086047456 0.12770225 0.013678226
000150 7a 07 22 bc 5b 04 59 3d b2 15 be 3c ee a3 26 be
       -0.009889478 0.05298267 0.023203705 -0.16273472
000160 a9 e6 05 3e b7 07 9f bc 4b 34 44 3e 30 50 e2 bd
       0.13076271 -0.019412858 0.19160573 -0.11050451
000170 7a 45 05 3d 7f 79 70 3c 08 32 47 3e 55 06 f9 3b
       0.03253696 0.014677404 0.19452679 0.007599632
000180 36 00 7e bc e6 fe 5c 3c 14 ce 0f bb 8a 10 b9 3c
       -0.01550298 0.013488507 -0.00219429 0.022590894
000190 7b de 94 bd b7 33 d4 3c 98 35 0e bd 54 ab 0d bd
       -0.07268997 0.025903566 -0.03471908 -0.03458722
0001a0 57 fd ae 3a 3d 1a 00 3d cb be 95 bd ea 0b 02 ba
       0.0013350648 0.031275023 -0.073117815 -0.0004960882
0001b0 7c 9b 25 bd bc 36 be 3c 05 45 62 3d d9 16 48 bd
       -0.040431485 0.023219459 0.055241603 -0.048849914
0001c0 e6 41 dc bd c2 28 26 bd f1 d8 23 bd 20 f9 3b 3d
       -0.10754757 -0.040566213 -0.040001813 0.04589188
0001d0 f5 f7 8a bd 53 c1 62 3d a6 4a 69 3d 45 a1 ca bd
       -0.06785575 0.05536015 0.056955956 -0.09894041
0001e0 d0 f9 17 bd ae b1 42 3d 0b 23 84 3c 53 1b 8c ba
       -0.037103474 0.04753273 0.016129991 -0.0010689296
0001f0 a7 f6 03 be e3 b0 54 3d 8f 95 ad 3d 8c 58 0c be
       -0.12887059 0.051926505 0.08475792 -0.13705653
000200 65 bc a0 bc 59 47 2e bd 5d 41 89 3d c4 5f 5f 3d
       -0.019621084 -0.04254851 0.0670192 0.05453469
000210 bc af 8f bc d8 73 88 3d e0 0a d6 3d e4 9d 53 bd
       -0.017539851 0.066627204 0.10451293 -0.051664248
000220 44 f8 86 3b ba 5a 6c 3c 21 79 6c 3c 22 b4 08 bd
       0.004118951 0.014425928 0.014433176 -0.033374913
000230 8f 07 b8 3d 16 da da 3c ff 0c 3f 3d 31 d0 e5 bd
       0.08985817 0.02671532 0.046643253 -0.1122135
000240 49 e7 d7 b9 dc fc c8 bc 8d f1 66 3b a5 35 cf bc
       -0.00041180316 -0.024534635 0.003523919 -0.025294134
000250 d2 c1 38 bd b8 e0 35 bd 38 5a 16 bd 0e a0 a8 3c
       -0.045106716 -0.04440376 -0.036707133 0.020584133
000260 f9 b3 4b 3c 95 ba 8b bd f7 a4 da bd fe 4c 8e 3d
       0.012433046 -0.06822697 -0.10675996 0.06948279
000270 36 1f 58 3d df d4 29 bd a6 96 4b bc 49 81 2e 3c
       0.05276414 -0.041462775 -0.012426054 0.010650941
000280 05 ec f8 bd 32 54 f3 3c 9c bd 03 be bf ca 52 3c
       -0.12154392 0.029703233 -0.12865299 0.012865721
000290 43 fb 80 3d c2 c7 a6 3d d0 04 d9 bc d0 52 20 3e
       0.06297924 0.081435695 -0.026491553 0.1565659
0002a0 1a d1 f4 bc a6 a3 be 3d a8 71 b9 bc 70 4c 48 3c
       -0.029884864 0.09308557 -0.022637203 0.012225255
0002b0 9f 2a c8 bc ad 62 83 bd 74 76 9e bd 18 d2 4a be
       -0.024434386 -0.06415305 -0.07737437 -0.19806707
0002c0 3a 9c f9 bd 3c 77 bf bc 90 e0 6e bd 39 d0 5b bd
       -0.12188001 -0.023372285 -0.05831963 -0.053665373
0002d0 b0 11 93 3d 19 26 40 be 2a 26 88 bc 5b 2c db bb
       0.07181108 -0.18764533 -0.01661976 -0.006688637
0002e0 00 06 b9 bd 2d 51 e2 bc 0e 31 42 3d 57 a8 3b 3d
       -0.090343475 -0.027626598 0.047410063 0.04581484
0002f0 14 ec 52 bd b7 ca cd bd aa 9c 36 3d 5c da 63 3c
       -0.051494673 -0.100484304 0.044583 0.013907041
000300 8e 33 25 bc 99 c4 bc bd d7 2a eb 3d a6 a8 ad 3c
       -0.010083092 -0.092171855 0.114827804 0.021198582
000310 88 c5 11 b9 75 dc dd bd 67 e7 7b 3c bd e6 db bc
       -0.00013901864 -0.108330645 0.015374995 -0.026843423
000320 00 90 a7 bc ca c8 39 bd 44 66 70 bd 7c ed a8 38
       -0.020454407 -0.045357503 -0.058691278 8.055099e-05
000330 32 23 a1 3d fa 15 8b bc 65 1c 74 bd 60 c9 c0 3d
       0.07868041 -0.016978253 -0.05959739 0.09413409
000340 bf ac 90 3d e1 c9 67 3d bf 6e e0 bd 1e 1d 2a 3c
       0.07064199 0.05658901 -0.10958623 0.010382919
000350 2a e5 10 3e ef 31 05 3e e3 f6 bf 3d 37 ce 29 3d
       0.14149919 0.1300733 0.09373262 0.041456427
000360 0f 2a 5a 3e 6d 4a 4b 3e 8a 07 d0 bc aa 97 24 bd
       0.21305107 0.1985261 -0.02539422 -0.0401837
000370 5a a0 8f bc 28 9f 09 bd 67 1d 31 3c 75 f9 f2 bc
       -0.017532516 -0.03359905 0.010810233 -0.029659966
000380 fb ba a3 bc 70 d6 87 bd ce fc 86 3d 23 da df 3d
       -0.01998662 -0.066326976 0.065911874 0.10930278
000390 e4 e9 d3 bb 28 f8 3e be 97 65 52 be 8a bd e5 bd
       -0.006467091 -0.18649352 -0.20546566 -0.11217792
0003a0 0f b9 bd 3c 53 b7 3f bc 69 bd 2a 3d e4 8a 7a 3a
       0.023159532 -0.011701423 0.04168454 0.00095574395
0003b0 c8 29 54 bd 62 e5 99 bd 8f 34 12 3e d5 d1 2f 3d
       -0.05179766 -0.075144544 0.14277862 0.04292472
0003c0 56 84 a8 3d c3 57 b4 3b 51 f2 f2 3c 7a b8 4c bd
       0.08228366 0.005503626 0.029656561 -0.049980618
0003d0 bb ad 8c bd 33 67 87 bd 02 da 8b bd a5 55 7c 3c
       -0.06869074 -0.066114806 -0.06828691 0.015401279
0003e0 af 1f 13 bc 77 9f 13 bd e2 c8 00 bd 29 64 09 bc
       -0.008979722 -0.03604075 -0.031441577 -0.008385696
0003f0 bb ea 58 3d 7f 1f a9 3d 5d 7c 9e bd fd d9 03 3e
       0.05295823 0.082579605 -0.07738564 0.12876125

Generator/body/res_block10/conv2/conv2d/Conv2D_bias f4 [16]
000000 f0 83 78 be 09 b3 3c bd e4 43 a5 be 81 70 47 3e
       -0.2426908 -0.04606918 -0.3227836 0.1947651
000010 6f e0 8d 3e 5c db 13 3e 01 6c 20 3d 9e cf b8 bd
       0.27710292 0.14439148 0.0391655 -0.09023975
000020 bd c4 e5 3b de 62 d6 bd e8 2a 83 3d 8d c0 ed bd
       0.0070119784 -0.10468076 0.06404668 -0.11608992
000030 d1 48 e0 3e b1 44 8d 3e 65 37 3d 3d e7 fe a6 bd
       0.43805555 0.2759147 0.046195406 -0.081540875

Generator/body/res_block10/conv2/conv2d/kernel/read f4 [16, 3, 3, 16]
000000 88 a4 94 3c 44 f4 55 3b 64 21 32 3d cf 87 04 bd
       0.01814486 0.0032646814 0.043488875 -0.03235608
000010 7d c0 40 bd 4c 81 f0 3c 11 1f 83 bd ba 41 0d 3b
       -0.04705857 0.029358529 -0.0640241 0.0021554069
000020 73 d7 0f 3d c7 8b 0f 3d 74 8a ec 3d fc 84 88 3d
       0.035117578 0.03504541 0.11549845 0.0666599
000030 f0 9b 35 bd 91 10 9b bd 3b 7b 2b 3e 95 9b 87 3d
       -0.044338167 -0.07571519 0.16746227 0.06621472
000040 80 3f fd 3d b9 d9 ab bd 52 77 d5 3d 9e d5 88 bd
       0.12365627 -0.08391137 0.10423149 -0.06681369
000050 36 44 8d bd 62 cc 1d bd 00 48 3f 3c c5 ca 0a 3b
       -0.06897776 -0.038524993 0.011674881 0.002117799
000060 ad eb 26 bc 64 66 5e 3d 6d 21 d9 3c 4c e3 e4 3d
       -0.010188025 0.054296866 0.026505196 0.11176166
000070 b1 ee 01 3d 61 f7 1e bd 09 ba 1d bc bf d5 b1 3d
       0.031721774 -0.038810138 -0.009626874 0.08683347
000080 37 5c 62 3d fb 86 13 bc 70 82 48 3d 1e e8 da 3b
       0.055263724 -0.00900435 0.04895252 0.0066805026
000090 6c a2 04 3a 4b a4 09 bc eb 63 34 bd 0b a7 c5 bc
       0.0005059603 -0.008400987 -0.0440406 -0.024127504
0000a0 1a b9 4c 3d 26 2b 89 3d 00 16 3b bd 19 4d 1e 3d
       0.049981214 0.06697683 -0.045675278 0.038647745
0000b0 a2 1a 78 3d 2e 97 4b 3c 67 f6 20 3d 99 cc 1a be
       0.060572274 0.012426181 0.039297488 -0.1511711
0000c0 28 6a b5 3c ab ed e5 bb 47 cd 11 3c 02 cc 96 bd
       0.022145346 -0.0070168576 0.00889904 -0.0736313
0000d0 5b 27 21 bd 5c 98 1a be e8 78 28 3c e8 a4 32 3c
       -0.039344173 -0.15097183 0.010282733 0.0109035745
0000e0 95 24 67 3e 27 99 a2 3d 36 9e ce 3d a6 31 fe 3b
       0.22572549 0.07939368 0.1008877 0.0077573834
0000f0 c7 9d 80 3d 6f dc 6a bd c5 58 ca 3c 46 43 18 bb
       0.06280094 -0.057339128 0.024700532 -0.0023233457
000100 df be 63 bd 26 a0 21 bb b9 77 2e 3e 79 b9 04 3e
       -0.05560195 -0.0024662106 0.17037858 0.12961377
000110 63 21 b4 3b ed dd fd bd da a9 ac bd 98 4d 3a 3d
       0.005497144 -0.123958446 -0.08430834 0.045484155
000120 a8 7a a9 3d 74 cc 11 3e 30 ee f0 bc 6e 2e a5 bd
       0.08275348 0.14238149 -0.029410452 -0.080654964
000130 1e 77 31 3e eb a5 0f bd 34 1f 1c 3c 3d bb 35 bd
       0.17330596 -0.03507034 0.009528924 -0.044368017
000140 15 61 2f 3d 2c 86 5b bb 24 26 63 bd 67 59 1d bd
       0.042817194 -0.003349672 -0.055456296 -0.03841534
000150 b5 40 67 3d 1a 52 5d bd cc 04 f8 bd 42 3e 90 3b
       0.056458194 -0.054033376 -0.1211029 0.004401953
000160 94 6a b6 3b 3c 0b 24 3c 1f 2d e1 3c 45 d1 67 3d
       0.0055669043 0.010012444 0.027487336 0.05659606
000170 66 5c a8 bc 1b 33 68 bc b0 40 27 3d 5b b8 b3 bd
       -0.020551872 -0.014172341 0.040833175 -0.087753974
000180 11 6c 11 bc cb 24 0f be 7b 36 2d bd c3 56 5b 3c
       -0.008875863 -0.13978879 -0.042288285 0.013387385
000190 28 6e 01 3d 65 e3 dc bc 6b a2 9e 3c fb 79 c6 bc
       0.031599194 -0.026963899 0.019364556 -0.024228087
0001a0 0b ab ff bc da e4 68 3d c4 af 87 3b 00 1f 0d 3c
       -0.03120949 0.056858875 0.004140826 0.008613348
0001b0 92 f0 2d 3c 1f 86 a1 bd 79 2f 03 3d e8 fe 96 3d
       0.010616438 -0.0788691 0.032027695 0.07372838
0001c0 9c 9a 07 3e 63 16 ee 3d 1a 55 d7 3c e5 4f 0e bd
       0.13242573 0.11625364 0.026285697 -0.034744162
0001d0 27 f0 8b bd 61 f4 4e bd 0b 39 53 bd 5f ea e9 3d
       -0.06832915 -0.050526027 -0.051568072 0.11421656
0001e0 39 1d 18 3d b1 07 b8 3d 91 5d d8 bc f5 da 7f 3d
       0.037137244 0.08985842 -0.026411803 0.062464673
0001f0 7e 10 15 bd 41 c9 4c 3d 68 96 e2 bc 62 e9 e2 3c
       -0.03639268 0.04999662 -0.02765961 0.027699176
000200 21 3c 41 3c e2 67 70 bc 6e eb 93 bd 12 3a 2d bd
       0.011794121 -0.014673205 -0.07222639 -0.04229171
000210 50 46 09 bc 21 de d3 3c fc cf c6 bc 16 89 5c bd
       -0.00837858 0.025862755 -0.024269097 -0.053841673
000220 3e 0c a4 bc 2e b6 03 3d f1 6f 1b 3d fa f6 b5 bc
       -0.020025369 0.032156162 0.037948553 -0.022212494
000230 99 34 af bd fc 8e 2a bc fe 7f ba bc ae 81 4e bd
       -0.08554954 -0.010410067 -0.02276611 -0.05041664
000240 c2 a0 78 3d e9 f7 12 3d 30 2e 0f 3d 11 08 1a bd
       0.060700186 0.035880957 0.034956157 -0.03760535
000250 8b 76 c0 3c 3e f2 75 bd d0 92 17 bd 80 46 56 3c
       0.023494026 -0.060045473 -0.037005246 0.013078332
000260 2b 0b c7 3c 89 ea c0 3d 32 64 da bd bd 3f ca 3c
       0.024297317 0.09419734 -0.10663642 0.024688596
000270 ab 45 9c 3d 68 1d 03 bd 3f 27 5d bd 47 0b 1e bd
       0.076304756 -0.032010466 -0.053992506 -0.038584974
000280 89 be 15 bb ca d2 4d 3d c6 dd 91 3b 40 06 2c 3d
       -0.0022849164 0.050249852 0.0044514863 0.041998148
000290 86 0e 6e 3d 19 f7 dc bd 18 fa 5f 3b c4 aa 77 bd
       0.05811932 -0.10789318 0.0034176167 -0.06046559
0002a0 f2 8d c8 39 db 5c 0a 3d 92 0d db 3c 13 82 00 3d
       0.0003825273 0.03377996 0.02673987 0.03137405
0002b0 d3 11 a4 3d cf 08 21 3d 79 01 84 3d e6 84 6f 3c
       0.08011212 0.03931504 0.064455934 0.014619088
0002c0 e7 c8 fe b9 64 38 4e 3d d0 59 fe bc 43 15 56 3d
       -0.0004859634 0.050346747 -0.031048685 0.05226637
0002d0 a4 7c 23 bd ee 33 c0 bc 68 2a 9e bd 89 88 00 3b
       -0.03991379 -0.023462262 -0.07722932 0.0019612631
0002e0 f2 62 cc bc 6e c7 66 3d 14 97 a0 3d 22 0e 98 3c
       -0.024949525 0.056342535 0.07841316 0.018561427
0002f0 56 e2 74 bc c3 7e 3e 3b 5b 97 3d 3a 98 e2 22 3c
       -0.014946541 0.0029067255 0.00072323316 0.0099417195
000300 56 d4 0c bc de 7c 6b 3d 9a 07 67 bd 32 18 77 bd
       -0.008595547 0.05749213 -0.056403734 -0.06032581
000310 8b e1 c9 3d 4e 13 6a bd df c5 4a bd b2 82 0c bb
       0.09857472 -0.057147317 -0.04950511 -0.0021440205
000320 1d 07 cf bc ef e8 9d bd eb 0c 44 3d d1 29 3e 3d
       -0.025271947 -0.07710444 0.047863882 0.046426598
000330 37 a9 16 3e 22 54 39 bd 0e 46 ec 3d fb f5 5c bd
       0.14712988 -0.04524625 0.11536799 -0.053945523
000340 de b6 af 3c ce 8e 36 be 37 29 49 bd 57 da ee 3d
       0.021449503 -0.17827913 -0.04911157 0.11662739
000350 83 ac 1c 3e 2e 37 84 be dd 38 58 bd 59 1b 89 bd
       0.15300183 -0.2582335 -0.052788604 -0.06694669
000360 6a d5 d5 3d 67 fa ca 3d 7d 2d 8b bc c1 0c 2e bc
       0.10441096 0.09911042 -0.016989464 -0.010623158
000370 39 13 81 3c 26 ab a5 bd 51 42 69 bd b2 db b6 bd
       0.015756236 -0.080892846 -0.05694801 -0.08928622
000380 09 0a 96 3c 66 f8 28 3d ca 38 1a bc 95 23 31 bd
       0.018315332 0.041252516 -0.009412954 -0.043246824
000390 11 1a 8e bd 56 d7 9f 3c 29 ad 9f bb a4 9a 16 bd
       -0.069385655 0.01951186 -0.004872937 -0.03676857
0003a0 4f 2f 00 bd 5c 6f 92 3d c3 0f e5 3d 58 18 ee bc
       -0.031295117 0.07150146 0.11184647 -0.029064342
0003b0 04 26 16 bd 5d 96 7f 3d 98 37 1e be ae 23 fd 3b
       -0.03665735 0.062399257 -0.15450895 0.0077252006
0003c0 c9 18 20 bb 7e ac 86 3b 6a b2 9f bd 93 c9 bd bd
       -0.0024428836 0.004109918 -0.07797702 -0.09266963
0003d0 6a 3d 91 bd 07 86 bd bb cd 12 8c 3b ef 15 2a be
       -0.07091792 -0.0057837996 0.004274702 -0.1660993
0003e0 67 51 66 3d 87 f5 d1 3c 1f ee 3e 3b 63 05 90 3b
       0.056229975 0.025629772 0.002913363 0.0043951734
0003f0 11 e3 20 39 db 64 2a 3d ab 4d 19 3c ab eb bc 3d
       0.00015343378 0.04160009 0.009356896 0.092246376

Generator/body/res_block11/conv1/conv2d/Conv2D_bias f4 [16]
000000 3b aa 8b 3e f0 50 85 be 7e 68 d1 bc 3b 36 12 3e
       0.27278313 -0.26038313 -0.025562521 0.142785
000010 31 6c 32 3e a2 72 ea bc 98 c9 fc bd 57 90 b6 be
       0.17424084 -0.028619114 -0.123431385 -0.35656998
000020 6b b0 4f 3a 43 ec dc bd 03 bf f3 bc ac cb a0 bd
       0.00079227117 -0.10787251 -0.029754167 -0.07851347
000030 f0 8b e4 3b cc 46 c0 3d f4 f7 df be 48 81 59 3c
       0.0069746897 0.093885034 -0.4374386 0.013275452
